model/ag-20250203_153657/models/NeuralNetFastAI_BAG_L2/S1F6/model-internals.pkl (torch, 328875 bytes, 50 tensors)

weight f4 [6, 4]
00000000: 7cb9 0cbb 120a f2bb 5b6c b73b 5241 293b
00000010: 47d0 c6bc 4a1c 81bb 9633 823c e20a 3a3e
00000020: 9c8c 783c ff6a 1d3d 70e6 1fbc a228 5cbd
00000030: f5f8 133c 7382 f83a 7853 963c 8bbb 28bd
00000040: 60e0 47bd e712 8bbd 2379 c9bb 0c60 0dbd
00000050: 3feb f5bc 539a 323c 45ab e8ba 63d2 fe3d
-0.0021472862 -0.0073864544 0.005597634 0.0025826287 -0.024269236 -0.00394014 0.015893739 0.18168214
0.015170243 0.038432118 -0.00975953 -0.053749688 0.009031524 0.0018959775 0.018350348 -0.04119448
-0.048797965 -0.06790715 -0.006148474 -0.034515426 -0.0300194 0.010901052 -0.0017751238 0.12442472

weight f4 [5, 4]
00000000: c5de 1c3c d3a0 633b cc2d 16bc 7a89 12ba
00000010: bbd4 363d 3f20 9d3b aa94 723c 2074 b9bd
00000020: fdd8 acbc 37e6 123d ff1b e3bb 1e3b 4a3c
00000030: 1150 353d e919 02bc e335 32bb bd24 ae3b
00000040: 9055 60bc 3898 983b 3dcd 4abc 94ef c1bc
0.009574597 0.003473331 -0.009166192 -0.00055899436 0.04463647 0.004795104 0.014805952 -0.09055352
-0.021099562 0.03586408 -0.0069308276 0.012343196 0.04426581 -0.007940748 -0.0027192764 0.005314438
-0.013692275 0.0046568178 -0.012378034 -0.02367381

weight f4 [5, 4]
00000000: f3bd 8f3a 0073 05bc 5041 ce3b 9934 9cbc
00000010: bed9 a8bd 3656 05be a53d d13d c1ca 333e
00000020: 636a db3d 1842 0b3d c336 96bd 4b4b a2bd
00000030: b5ee 713d 318d 033d c2b1 cc3b d0ed 25bc
00000040: 98b7 b7b9 0d81 803d 604b 54bd 1f57 cfbd
0.0010966643 -0.008145094 0.006294407 -0.01906805 -0.08244656 -0.13021168 0.10216836 0.17557813
0.10713651 0.03399858 -0.07334664 -0.07924517 0.05906554 0.032117072 0.0062467763 -0.0101275
-0.00035041268 0.062746145 -0.051829696 -0.10124039

weight f4 [6, 4]
00000000: 22e2 723c 9b57 e4bb d76c eb3a 4fe6 5d3c
00000010: 9e4d 0abd 3853 86ba e3d8 883c ee35 8dbc
00000020: f3cf c93c cdf3 423e a504 493c e40e f6bd
00000030: 39a3 d7bc dfac 23be 140e 813d beb0 403e
00000040: bb80 90bc 0649 68be fcaf 333d 86a0 593e
00000050: a0a5 e1b8 d2c7 3ebd f6f1 503c a39d 8d3d
0.014824422 -0.006968451 0.0017961514 0.013543679 -0.033765428 -0.001024819 0.016704982 -0.01723763
0.02463529 0.19038315 0.012269174 -0.12014559 -0.026322948 -0.15983914 0.06301513 0.18817422
-0.017639508 -0.22684106 0.043869004 0.21252641 -0.00010759686 -0.046577282 0.0127530005 0.069148324

weight f4 [4, 3]
00000000: 626b 273c 14b4 36bc ba31 ee3b 3e56 ccbd
00000010: 991b 1fbd 25e7 3abd 274e 993d 3c12 153d
00000020: cab2 80bc 62c6 51bd 8b0e 55bd b045 bdbb
0.010218473 -0.011151332 0.0072691115 -0.09977387 -0.03884468 -0.045630593 0.074856095 0.036394343
-0.015710253 -0.051214583 -0.052015822 -0.0057761297

weight f4 [26, 10]
00000000: 978d 77ba fe6a 333c d393 553c 32e9 3ebb
00000010: a646 883b bc79 38bc 0c87 05bc 3cf4 1abc
00000020: 3a16 3a3b e84e 153b f041 a53a 0cfb 9e39
00000030: 497e d63c ba0c 01bd 8f54 9dbd 2805 863a
00000040: 5b36 d1bc 0fd3 c1bc 60fa 4ebb 721c 80bc
00000050: 9d7d a5bd 805f dbbc 97c1 eb3d a45a 0fbe
00000060: d193 c13a 24c5 833c cacf b53c 76d0 99bd
00000070: 8b9b a83d 8633 973b 23fc 4cbd dc3a d13c
00000080: a687 003c 7b28 dfbd 9993 f7bb f167 8b3c
00000090: fa97 2fbd 973a 70bc af86 383c 46aa 483c
000000a0: ece9 0f3e 2cbe 233d 7f38 abbd 7db7 0e3e
000000b0: cb86 573c f24b a1bc 5256 58bd 5236 b53c
000000c0: 548a 51bd 2376 713b dde6 82bc 85f7 90bc
000000d0: 0460 c83c 9edd 2bbd 1909 bcbc 767a 52bc
000000e0: 8f42 bc3c b6fa 52bd ba0f cb3c dfc1 eebb
000000f0: ff61 48bd 313c fb3c fe3e 6fbb 4b62 833b
00000100: c0d6 603c a20c 8cbc d78d 373d e077 50ba
00000110: 5013 d5bb 3c61 8bbb 3725 8e3d 4829 d8bc
00000120: 2ac3 aabd 75e9 9f3d 0dd7 3f3d 42d8 14bc
00000130: 4bb2 ecbc b6d5 e9bb 8839 80bd 93d9 18bd
00000140: 0625 22be dd72 dfbd a74e 0f3e 2947 3abe
00000150: e45b edbc e7bb 883d d7cd a03d d7f7 c4bd
00000160: 0f19 9e3d b753 87bd 782e 34ba 14c3 59bd
00000170: bd30 a33c 783a 733c da62 263d 1005 033b
00000180: 632b 2ebc a8e9 69bd 409f a3bb cb39 07bc
00000190: 6428 85bd 4155 d43c 85b8 f4bc f6e8 ee3c
000001a0: b0d6 033d f576 92b9 f98d 6b3c bc26 1d3b
000001b0: 5d7f 63ba da58 393d 266f 7fbd 43f5 83bc
000001c0: dfc9 ac3d 92ec 1abd b688 b4bc 7e8e 053b
000001d0: d3ff 303c 9283 98bc b0da 433c e408 cf3a
000001e0: 49e2 02bd 2d5a 28bd 6886 693d 1a3b f5bd
000001f0: 904d 75bd 025b e0b9 67ac 3c3c 2a61 6abd
00000200: b2a3 3d3d b401 dc3b 2b8d 40bd 9505 ddbd
00000210: ded3 ca3d 24e0 d1bd d846 9d3c c34b 4b3d
00000220: 0fff e53d ccd8 b3bd 74f3 8e3d 6d92 2abc
00000230: 46e5 093c d876 f63c 0cf6 b939 41aa ca3a
00000240: 1493 1f3d f2e9 5b3d 3b2e bbbc 8db9 9bbc
00000250: d699 f63c edf6 743b 1b2c 61bd 9f6a 59bd
00000260: 0f03 353d bcba 3ebd d9d8 e6bb c01d 8dbd
00000270: f5cd 2c3c b582 6ebb 3755 633d 6bb9 6e3d
00000280: ef21 d53d f027 013e 563a b1bd 6cc5 b73d
00000290: 3a76 82bb b76b c83b 5283 a0bd b88e e23d
000002a0: 7f53 bfbc f0e0 463d 0705 373d 5275 553d
000002b0: 896c aebd 6a4a b63d ed9b 51bc c8c8 e13b
000002c0: 1326 49bd 33a8 923d 580e 22bd ed9b 543c
000002d0: 97ff ebbd 76e2 0dbc 6c5d 733d 18c6 e7bd
000002e0: 3906 9fbd ba82 3a3d b2bb e73c c8f6 fdbb
000002f0: 5059 8f3d 0513 693b 76eb 883c 7992 323d
00000300: c5f3 c8bc 2123 393c 1564 d8bc b651 b53c
00000310: 58e3 3dbd aa9c 7d3d 348f 153c 1e5c 673c
00000320: 6427 62bc 8308 663c 0ee0 34bc 5670 9dbd
00000330: cebb 5dbd 68a9 933d 5527 24bc 35aa e9ba
00000340: c98e 593d 38c5 cbbc a01d 93bc 7ed2 a53d
00000350: 8761 0abd f562 533c 4ae7 debc cdf7 923b
00000360: d97d 6f3c 8d26 9e3d ddc4 3a3c 39a3 d73a
00000370: 24d4 dfbb 0986 98bc 56f7 81bc 00e6 213d
00000380: 4765 163c b5f2 e1bb f04d 8cbd a67c 56bc
00000390: 1715 67bc e9d4 803c 0c7a fd3d 50c1 e63d
000003a0: 11f4 13be 2546 603e bb06 6d3d 979b edbc
000003b0: 582e 01be fa18 b53d bf94 cabd a279 a53d
000003c0: 2228 e2bc fffc b3bc 56f2 aa3c 8304 98bd
000003d0: 541e d93b 6cba 313c 425b e13c 5c57 b5bd
000003e0: 995e e23c 54f4 a53d 379b a63c 91de 1d3c
000003f0: 77da 293c ef5d c03c 3fd6 0cbd 1dfb 1dbd
-0.0009443401 0.010950802 0.013035732 -0.0029130694 0.0041588126 -0.0112594925 -0.008149873 -0.009457644
0.0028394596 0.0022782627 0.0012608152 0.00030323153 0.026183264 -0.031506278 -0.07682144 0.0010224925
-0.025538614 -0.02366021 -0.003158234 -0.015638564 -0.080805995 -0.026778936 0.11511534 -0.1399942
0.0014768784 0.016085215 0.022193808 -0.07510464 0.082327925 0.0046142964 -0.050045144 0.025540762
0.007844841 -0.10896393 -0.007555437 0.017017337 -0.042869546 -0.014662406 0.01126258 0.012247628
0.14054078 0.039976284 -0.08360385 0.13937183 0.013154696 -0.019689534 -0.052816696 0.022120629
-0.05115731 0.0036844097 -0.015979225 -0.017696152 0.024459846 -0.041959397 -0.022953557 -0.01284658
0.022980956 -0.051508628 0.024787772 -0.007286295 -0.04892158 0.03066835 -0.0036506052 0.00400952
0.013723075 -0.017095868 0.044813003 -0.0007952433 -0.0065025464 -0.0042535346 0.06940692 -0.026386872
-0.08338006 0.078082 0.046835948 -0.009084763 -0.02889361 -0.007136072 -0.06260973 -0.03731687
-0.15834436 -0.1091058 0.13994847 -0.18191208 -0.02897448 0.066764645 0.07851761 -0.09617584
0.07719623 -0.06607764 -0.00068733795 -0.053164557 0.019920701 0.014845483 0.040621616 0.001999203
-0.010630461 -0.057107598 -0.0049933493 -0.008253525 -0.065018445 0.025919558 -0.029873142 0.029163819
0.032187164 -0.0002793592 0.014377111 0.0023979386 -0.00086783414 0.04525075 -0.06236186 -0.01610816
0.08436941 -0.037823267 -0.022037845 0.0020379121 0.010803181 -0.018617425 0.011953995 0.0015795496
-0.031954084 -0.041101623 0.057012945 -0.11974163 -0.059888422 -0.00042792415 0.011515713 -0.05722157
0.04629869 0.00671407 -0.04700963 -0.1079208 0.09903692 -0.102478296 0.01919882 0.0496328
0.11230289 -0.08781585 0.06980029 -0.010410887 0.008416479 0.030085966 0.0003546927 0.0015462117
0.038958624 0.053689905 -0.022849193 -0.019009376 0.030102652 0.0037378625 -0.054973703 -0.053080197
0.04419237 -0.046564803 -0.007044893 -0.0689044 0.010547151 -0.0036393825 0.05550119 0.058282297
0.10406863 0.12612891 -0.08653705 0.08973202 -0.003981379 0.0061163562 -0.07837547 0.11062378
-0.023355244 0.04855436 0.04468253 0.05211384 -0.08516795 0.08900912 -0.012793523 0.00689039
-0.049108576 0.07160988 -0.03956446 0.012976629 -0.11523359 -0.0086599495 0.059415266 -0.1131708
-0.07764859 0.045534827 0.028287742 -0.007750366 0.06999457 0.0035564315 0.016713839 0.04359672
-0.0245303 0.011299879 -0.02641491 0.02213369 -0.04635939 0.061916985 0.009128381 0.014121084
-0.013803337 0.014040115 -0.011039747 -0.07687442 -0.054134183 0.07210046 -0.010019143 -0.0017827215
0.053114686 -0.024874315 -0.017958462 0.08096789 -0.033784416 0.012902011 -0.027209897 0.0044851066
0.014617407 0.07722197 0.011399475 0.0016451842 -0.006830709 -0.0186186 -0.01586501 0.039525986
0.00917942 -0.006895388 -0.06850803 -0.013091242 -0.014104149 0.015726523 0.12376794 0.1126734
-0.14448573 0.21901758 0.057867747 -0.029004855 -0.12615335 0.088426545 -0.09891652 0.0807984
-0.027607027 -0.021971224 0.020867508 -0.074227355 0.00662593 0.010847669 0.027509335 -0.08854553
0.027632998 0.081032425 0.020337684 0.0096355835 0.0103670275 0.023482291 -0.03438401 -0.03856956

weight f4 [10, 6]
00000000: f46c 96bb 8895 c639 b9ca 57bc 99d9 b43b
00000010: 424d 30bc bf3f 57bb d7af a03d ee04 93bb
00000020: d272 853c c155 703d 306f 4fbd 8a68 f63c
00000030: 89ba 73bc dc05 033d fdb3 aa3d 9a73 00be
00000040: 6149 a43d c510 e93d 0698 5fbc e3b3 2bbd
00000050: e35d adbd fb14 6d3d e36a bbbd 0a6d febd
00000060: a569 183d 458b 98bc 19d8 103b 2895 8b3b
00000070: f49f 00bd 3431 7ebc 61a3 25bd 1b82 f93c
00000080: bc76 353e c9ad 05be d546 5a3e 5f92 ad3d
00000090: 8fce 1c3e c8a8 df3d d729 d43d 176d 8fbd
000000a0: 518a 0e3e 897d 003e 611d f03c 5952 9ebc
000000b0: 3317 37bd 7e87 9f3c ad1c 94bd baea 0b3d
000000c0: 34bd 88bc 2a86 adbc 509e 15bc a2c0 183c
000000d0: 2d89 113c 265b 283c 0ed5 b53d d283 233d
000000e0: a463 cc3c e18b d7ba 6b3b e03c eed7 003e
-0.004590625 0.00037876912 -0.013170891 0.0055191037 -0.010760607 -0.0032844392 0.07846039 -0.0044866716
0.016290102 0.05867553 -0.050643146 0.030079145 -0.014876016 0.03198801 0.08335111 -0.12544098
0.080218084 0.11380152 -0.013647085 -0.0419196 -0.08465173 0.057881337 -0.091512464 -0.12423141
0.037210125 -0.018621096 0.002210146 0.004259724 -0.031402543 -0.015514661 -0.040439013 0.030457547
0.17721075 -0.13054575 0.21316083 0.08475184 0.15313171 0.10920864 0.10359543 -0.07003229
0.13919951 0.12547888 0.029310884 -0.019326376 -0.04469986 0.019473787 -0.07232032 0.0341594
-0.016691782 -0.021182138 -0.009131983 0.009323271 0.008882803 0.010275638 0.088785276 0.039920636
0.024949856 -0.0016444885 0.027372083 0.1258237

weight f4 [6, 4]
00000000: a4fe a63b 93bc 9d3c 5f1a 8fbc a9a5 203c
00000010: 5355 11bd ffc2 62bc 92d6 7bbb ee03 6dbc
00000020: d24a 62bc 2a40 0c3d f27b 6cbb 14c9 b33c
00000030: 6cd4 a73c fb50 debc 40e7 79bd 8e7e 7f3d
00000040: 4df2 7b3d d9dc 763e 70e9 8a3e f470 2ebe
00000050: d15a 833c 4e0e 02bc e4df 793c c954 8b3c
0.0050962735 0.019254958 -0.01746863 0.009805121 -0.035481762 -0.013840436 -0.0038427454 -0.014466269
-0.013811784 0.03424088 -0.003608462 0.021946467 0.020487033 -0.027138224 -0.061011553 0.06237655
0.061510373 0.24107684 0.27131224 -0.17035276 0.016034516 -0.007937981 0.015251134 0.017008202

weight f4 [6, 4]
00000000: 9183 c23b e764 233c 89b9 05bc 18f9 a53b
00000010: e20b 363c 4094 a8bd d13c fb3b ace7 0dbd
00000020: aaf7 0bbd 03d6 e33c b99c 7f3c eca2 34bd
00000030: 5698 a4bc 0c82 2bbd 80ea e0bc c662 84bc
00000040: a63a 313d df6b 033e 40f3 103d 5bf5 083d
00000050: 10f1 9ebc 3bf5 e23c 6449 5bbb 1404 d63c
0.005936094 0.009972787 -0.008161911 0.0050650947 0.0111112315 -0.082314014 0.007667162 -0.034644768
-0.034171738 0.02781201 0.01560133 -0.044100687 -0.02009217 -0.04187207 -0.027455568 -0.01616038
0.043268822 0.12834118 0.03538823 0.033437114 -0.019402057 0.027704826 -0.0033460492 0.026124991

weight f4 [9, 5]
00000000: ceac a7bb 4ac6 30bc 80f5 873c ef81 61bb
00000010: a628 ca3b 01a4 333d 5ddd 613c 62f6 d2bd
00000020: c0b6 71bc cb74 813c c504 febc 6c47 83bd
00000030: 0e34 f43c 1ba9 dd3b a655 2ebd a0ad 7b3d
00000040: b1ee 46bd d4f5 16bd 7e89 2e3c 24e1 063d
00000050: 3f37 a53c 9dfa 8d3a 4c72 a3bb c5bc 2f3c
00000060: ea4f 1b3d e901 e9bc eeaf 6cbc e89a 6f3c
00000070: 9ed7 73bd 6f39 22bd 6c6b 47ba ae6a 2f3c
00000080: 7de4 f7bb 6b98 0fbc 37fb 303b c0f6 7338
00000090: 9591 d6bc 503b 36b8 f6fc 12bc f670 abbc
000000a0: 0077 edbc 899b d3bc bc4f aa3c ee35 593d
000000b0: 5340 423d
-0.0051170355 -0.010789463 0.016596556 -0.0034409722 0.0061693965 0.04385758 0.013785687 -0.103009
-0.014753044 0.015802762 -0.031008134 -0.06410107 0.029809978 0.0067645437 -0.04256215 0.06144488
-0.048567478 -0.036855534 0.010652898 0.032929555 0.020167945 0.0010832135 -0.0049879905 0.0107261585
0.03791801 -0.028443294 -0.014446242 0.014624335 -0.0595318 -0.039605554 -0.00076072547 0.010706587
-0.0075650797 -0.008764367 0.0027005204 5.816552e-05 -0.026192466 -4.344742e-05 -0.008971443 -0.020927887
-0.028987408 -0.025831 0.020789973 0.053029947 0.047424626

weight f4 [7, 5]
00000000: ac89 aabb d79f 8038 55b3 b4bb b3a7 89bc
00000010: b56a 593c a51f 5c3d fdcd 9abc 0d1d 6cbd
00000020: 32d2 273c e1d2 d8bd 3747 a1bb 2b94 1fbb
00000030: 291b 053d 0d90 513d 1fd1 70bc 96f6 b3bb
00000040: 24e1 ffbc 0b91 30bc c3cf 39bd c33c 2abd
00000050: a1b4 fab9 10ad 07bd 13b1 9b3c 12e1 4e3c
00000060: 0f24 aaba b63f efbc 8d41 c9ba f1d9 2cbc
00000070: 70cb c4bc b8f3 8d3c 8da5 bc3b fe49 153d
00000080: f180 c73c 4b76 8dba f79d b43d
-0.0052044 6.133288e-05 -0.005514542 -0.016803598 0.01327007 0.053741116 -0.018897051 -0.057644892
0.010242986 -0.10587097 -0.0049218195 -0.002434979 0.032496605 0.05116277 -0.014698296 -0.005492042
-0.031235285 -0.010776768 -0.045364153 -0.041561853 -0.00047818295 -0.03312403 0.019005334 0.012626903
-0.0012980717 -0.029205184 -0.0015354619 -0.010550008 -0.024022788 0.017328128 0.00575704 0.036447518
0.024353476 -0.00107927 0.08819192

weight f4 [5, 4]
00000000: 0b58 a9bd 5764 043e 5866 ed3c 3c97 343d
00000010: 1e9a 5539 6f40 0dbd 057d 38bd ae1b 20bd
00000020: 898c 33bd aacb c2bb e5e3 983c 48a8 263b
00000030: e87a dabc e453 0b3d c152 0e3c e963 9c3c
00000040: 4d8c 0c3e eb0a 9bbd b948 82bc dc2d 25bd
-0.08268746 0.12928902 0.028979465 0.04408954 0.00020370676 -0.034485277 -0.045041103 -0.039088897
-0.043835197 -0.005944689 0.018663356 0.0025429893 -0.026669934 0.03401555 0.008686722 0.01909061
0.13725396 -0.07570442 -0.015903817 -0.040326938

weight f4 [13, 7]
00000000: 3699 373e 80f4 333c 024f 253e 0c1f a03d
00000010: 54b6 2c3e 4b06 0a3e f7ab 0fbd 61b5 b13c
00000020: bf73 abbc aca7 0c3c 280c 173d 63d2 3d3c
00000030: 45af 1e3d bef5 043c 8424 e73c 0ded 58bd
00000040: 36e5 04bd 0391 febb d6a3 c7bc cb4f 86bc
00000050: 2378 3abd 4f90 8bbe 0384 14bc 1c60 a9bd
00000060: ffd5 18be 7506 33be 9493 0cbe e8cd da3d
00000070: 0620 253d b300 da3c 597e 063d 9927 7c3d
00000080: a73e 983b d889 9e3d b46c b33d e45a ae3c
00000090: c3b9 843c 6305 c43c 3d98 4c3d 3f52 043c
000000a0: b4f0 02bd 0d4c 85bd 2ad9 84bc 3500 c63b
000000b0: cf5f 213d 85b1 ca3c 8f2a 12bc de7a 0cbb
000000c0: fbbb 69bc ac79 323c 3e54 afbc 3b27 dcb9
000000d0: be0a e3bc 2b82 b3bc db20 cc3c 64cb cebc
000000e0: 1bd4 2f3e da63 b2bb b700 ec3d 8513 d73d
000000f0: c93a f93c 4346 a63d c23d aebc d427 fa3d
00000100: f23e 7d3d bf8c ce3d aff8 cc3d d6ab b43d
00000110: ddf4 d13d e8d0 a73c 848d 123d 2855 783b
00000120: 7b48 cd3c 7ef5 843b 075e 223d 43b4 803d
00000130: 2ae1 04bb 91c5 0abe 734a 9b3c afa0 d0bd
00000140: 969c 00be cba5 b4bd 1c66 84bd 822c 6abd
00000150: b621 3a3e fdd0 b8bc ade0 b33d 3b11 e63d
00000160: 33f8 b33c 1ca4 ee3d d9e1 95bd
0.17929539 0.010983586 0.1614342 0.07818422 0.16866428 0.13478963 -0.035076108 0.021692934
-0.020929215 0.008584898 0.036876827 0.011585805 0.03874137 0.00811523 0.028215654 -0.052960444
-0.032445155 -0.0077687516 -0.024370115 -0.01639547 -0.045524728 -0.27258536 -0.009064677 -0.082702845
-0.14925383 -0.17482932 -0.13728172 0.10683805 0.040313743 0.026611662 0.03283534 0.0615612
0.0046461406 0.07741135 0.08760968 0.021283574 0.01620186 0.02392835 0.049949873 0.00807625
-0.031967834 -0.06508646 -0.016216833 0.006042505 0.03939801 0.024742851 -0.00892128 -0.002143554
-0.014266009 0.010893267 -0.021402474 -0.000419909 -0.027715083 -0.021912655 0.02491801 -0.025243469
0.17170756 -0.005444032 0.11523574 0.1050177 0.030423539 0.0811887 -0.021269683 0.12214628
0.061827607 0.10085439 0.1000837 0.088218376 0.10251782 0.020485356 0.03577949 0.0037892554
0.025058975 0.0040575853 0.039640453 0.06284382 -0.002027581 -0.13551928 0.018956399 -0.10186898
-0.12559733 -0.08820685 -0.06464788 -0.057171352 0.18176922 -0.02256059 0.08783088 0.11233755
0.021968937 0.11652395 -0.07318468

weight f4 [15, 7]
00000000: ad39 2e3e 935b 043e cc2a c8bd 8b30 06be
00000010: 900b 23bc ea9a c23c 3b0f f13d 21bd a53c
00000020: 29f7 a33b aeb8 aabc 91f2 0fbd 9337 63ba
00000030: cbfb c9bb e4c0 623c 294d fd3b 0d4d 81bb
00000040: 77fe 15bc e0ce 36bd 4f95 e03b ec63 433b
00000050: 7a0d acbb 6dde 99bc f437 90bc 84c4 2c3c
00000060: 2827 5abc fc44 2d3d 488e d4bb 8112 51bd
00000070: b937 dfbd a840 7bbd cd2b 403d 2be0 0f3e
00000080: a69b 353d 56f5 913a 9b28 803c eb69 7c3d
00000090: d455 473d 5d78 ba3b cf14 0ebd bcdc b4bd
000000a0: a153 a0bb 19bc b83c b8ef 8a3d 07d2 8abc
000000b0: fa62 47bd 2809 a0bc a1b5 ab3c df47 b33b
000000c0: 9682 a9bc 67ec 16be 25ad aebd e558 833d
000000d0: c3fe cd3d d111 e33d bcff 5dbd c89d 51bd
000000e0: a4c8 bd3b fcc0 7e3c 7871 2f3d 800a ad3b
000000f0: e1cc 083c 6c3c 40bc 5b8d 8ebc 9a7f 9a3c
00000100: 351c 2ebd db51 2ebd 2fd2 873b 5116 f23b
00000110: 28aa 83bc 984c 18bc 4996 1b3e f67a 073e
00000120: f5c1 b4bd e316 8dbd b2e0 16bd 1b4a 113d
00000130: acb4 6dbc c2fc ec3d fe24 c03d 3008 8dbd
00000140: 2c5f c2bd b000 5abd 2a89 4d3c aecb 50bb
00000150: a9b4 003d a85a b53d d756 0dbc 231c a0bc
00000160: 8229 d73a 24ed 3cbb 4bfc 5d3c b5a7 c9bc
00000170: 6f0e 6bbc fcaa 96bc 4ae4 103d d969 5f3d
00000180: 301d cebb 9f1b 97bc d3fe 2a3c 2ee0 76bc
00000190: 78db a93c 5765 c23d 4249 0d3b 027f d2bc
000001a0: f355 453d
0.17014189 0.12925558 -0.09773788 -0.13104455 -0.009951487 0.02375551 0.11770483 0.020231785
0.005003829 -0.020840015 -0.03514344 -0.0008667644 -0.0061640493 0.013839934 0.0077301455 -0.0039459527
-0.009154907 -0.044630885 0.0068537365 0.0029814197 -0.00525063 -0.018782819 -0.017604806 0.0105449
-0.013315 0.042302117 -0.006486688 -0.051043037 -0.108993 -0.061340958 0.04691677 0.14050357
0.04433789 0.0011135738 0.015644362 0.06162445 0.048665836 0.005690618 -0.034687813 -0.08831164
-0.004892782 0.02255063 0.06784004 -0.016945852 -0.048678376 -0.019535616 0.02096063 0.005471214
-0.020692151 -0.14738618 -0.085291184 0.0641344 0.100583576 0.110873826 -0.054198965 -0.051175863
0.0057917405 0.015548941 0.04283282 0.0052807927 0.008349628 -0.011733156 -0.017401388 0.018859673
-0.04250737 -0.042558532 0.004144929 0.007387914 -0.016072348 -0.009295605 0.15194048 0.132305
-0.08826057 -0.06889131 -0.03683538 0.035471063 -0.014508408 0.11571647 0.09382056 -0.06886327
-0.09490809 -0.053223312 0.0125449095 -0.0031859684 0.03142229 0.08855182 -0.008626661 -0.019544667
0.0016415569 -0.002882787 0.013548921 -0.024616102 -0.014346703 -0.018392079 0.035373963 0.054544304
-0.0062901005 -0.018445788 0.010436731 -0.015068097 0.020734534 0.09491985 0.0021558558 -0.025695328
0.04817767

weight f4 [5, 4]
00000000: ed90 3c3c 0c3c 91bb d796 ce3b ba74 71bc
00000010: 08b3 373d b9b0 50bc 9c30 433c 6e15 ef3d
00000020: 81ea 883d 813d 6f3c 4320 203d 0eec 583d
00000030: 2d7b c33c 4ec1 bebc 575e 38bd 0e76 6abb
00000040: de30 60bd 24ff 1b3d 0d36 a43c f9e9 b6bc
0.011509162 -0.004432207 0.0063046026 -0.014737302 0.044848472 -0.012737446 0.011913445 0.11674009
0.06685353 0.014602066 0.039093267 0.052959494 0.023862446 -0.023285534 -0.045011844 -0.0035775932
-0.054734103 0.038085118 0.020045305 -0.022328364

weight f4 [5, 4]
00000000: bffb 47bc 927a f2bb 95c3 d0b8 266f 953b
00000010: f1bd e8b9 bd01 0bbb da2c 2f3d 1a06 7dbb
00000020: 78bf 2ebc 298a 773b f426 02bd 5471 98bc
00000030: 53e8 813d e8eb 90bc c4fa 06bd 4d29 413c
00000040: b0d2 073c f21a 9dbc 9e14 abbc c0ff 5e3c
-0.012206017 -0.0073998654 -9.954643e-05 0.004560369 -0.00044392006 -0.0021210753 0.042767383 -0.0038608373
-0.010665767 0.003777156 -0.03177543 -0.018608727 0.063431405 -0.017690614 -0.032953992 0.011789632
0.008289978 -0.019177888 -0.020883854 0.01361078

weight f4 [5, 4]
00000000: 6143 4bbc 5be1 cd3c 61b6 4b3c f01c 963a
00000010: 24ec aebc d4bf d2bc 3c90 c13b e1ac efbc
00000020: f89f f1bc 19c6 903b 13fc a53c 4d8a 06bc
00000030: b985 05bd eb3e 3bbc 5782 6dbd 7c24 783d
00000040: ee59 b0bd 1742 99bb fb4e 4cbd 65bd 333d
-0.012406201 0.025131872 0.012433619 0.0011452716 -0.021352835 -0.025726236 0.0059070867 -0.02925724
-0.029495224 0.0044181463 0.0202618 -0.008211684 -0.03259823 -0.011428575 -0.05798563 0.06058167
-0.08610903 -0.004677068 -0.04988001 0.043881793

weight f4 [7, 5]
00000000: 5fba 313c b516 3abb 2a3d 8b3b 1418 05bc
00000010: 9c11 66bc cb96 3abb a219 f13c fb14 ab3c
00000020: 3f34 5c3d 2e2e 1fbd f693 14bd 0fee 8bbc
00000030: 32e6 11bd 826b abbb c7d4 af3c 2562 843c
00000040: d942 953b 28a8 073b 358a 5d3d 913f 673c
00000050: 3b37 a83c 2dda 88bd 2d0e 34bd 7843 f43b
00000060: bc87 85bc e460 85bb 51e5 5dbc de93 843c
00000070: 15e5 7cbb cfda e2bc 3ddc b2bd 441b cdbc
00000080: 3b3e f43c 61be 79bd fa1b 363d
0.010847657 -0.0028394882 0.0042492347 -0.008123416 -0.014042284 -0.0028471227 0.029431168 0.020884028
0.053760763 -0.0388624 -0.03627392 -0.017081289 -0.035619922 -0.005231322 0.021463765 0.01616008
0.004555088 0.0020699594 0.054086883 0.0141142765 0.020534148 -0.06682239 -0.04395883 0.007454332
-0.016300075 -0.004070388 -0.013543443 0.01618379 -0.0038588692 -0.027692227 -0.08733413 -0.025037415
0.02981483 -0.060972575 0.044460274

weight f4 [5, 4]
00000000: 99e7 7cbc 110f 153b 533c a43a b85d 2d3c
00000010: 491d 23bc 8728 44bc 7b47 743d 5cda 80bb
00000020: 31ae 99bd 794f c3bb 08f9 663d c4c6 bebb
00000030: 548d 173d 84c0 803b f45b 9ebd 7fb1 543c
00000040: 75d3 483d 5722 4e3c e4e4 12bd 70e4 54bc
-0.015436077 0.0022744576 0.0012530185 0.010581426 -0.009955713 -0.011972553 0.05963848 -0.0039322805
-0.075039275 -0.0059604016 0.05638984 -0.0058220346 0.037000015 0.0039291997 -0.077323824 0.0129817715
0.049029786 0.012581429 -0.03586282 -0.012993917

weight f4 [5, 4]
00000000: 083e 4e3b f533 a239 2c57 26bb 6a4a 83bc
00000010: 5ebe 9c3c a31f 073d 5ac5 84bd c830 96bd
00000020: b337 0d3d d68f 503d 126f 25bd 218c 06bc
00000030: 140a 31bc c262 debc a2b2 06bd a6e8 00bc
00000040: ba89 1f3d d7c5 363d e6a3 1d3b ab61 e8bc
0.003147008 0.0003093776 -0.0025381548 -0.016026694 0.019133743 0.032989156 -0.06482954 -0.07333523
0.034476947 0.050918423 -0.040389128 -0.00821212 -0.0108056255 -0.0271467 -0.0328852 -0.007867968
0.038949706 0.04462227 0.002405399 -0.028366884

weight f4 [5, 4]
00000000: b5f2 cc3b 01f5 a2b9 6d07 cf3b cf34 3839
00000010: 7b7b 043d fee0 7abd 60e1 8f3d 73ab cf3d
00000020: fd31 44bd c4cd 023e 8242 70bd 9175 10be
00000030: 196c 033c 741a 133c bf17 cebb 3cd6 023d
00000040: 5a38 c93c d756 38be 5b57 a43d 1d18 aa3c
0.006254519 -0.0003108159 0.006318024 0.0001756728 0.032344323 -0.061249726 0.07025409 0.10140123
-0.047899235 0.12773806 -0.058657177 -0.14107348 0.008021378 0.008978475 -0.006289452 0.03194259
0.024563003 -0.18001877 0.08024474 0.020763451

weight f4 [7, 5]
00000000: 0f22 e53b 1704 523c 1e04 29bc 6509 71ba
00000010: 0528 cfbb 14e6 b2bb c567 adbd aed5 18bc
00000020: d992 843b baf0 ae3c 85dd 8b3d b80e 46bc
00000030: d12d d23c aca7 9538 4a40 843c 1c36 06bd
00000040: 9c5d 30bb 2695 59bb c19e b2bc b4f9 023d
00000050: 7881 e63c d054 f439 589c 62bb c3e8 983d
00000060: 1083 5cbd acc9 e1bc a016 6a3d 74e6 b8bd
00000070: f653 0fbb 0612 dcbd 1036 3cbd c256 debc
00000080: 3b96 2ebd f74e 2e3d 602c 1dbd
0.0069925855 0.012818358 -0.010315923 -0.00091948203 -0.0063219094 -0.0054595564 -0.08467058 -0.009328289
0.004045826 0.021355022 0.06829361 -0.01208847 0.025656613 7.136105e-05 0.016143937 -0.032766446
-0.0026911264 -0.0033200472 -0.021804215 0.031976417 0.028137907 0.00046602497 -0.0034578051 0.07466271
-0.05383593 -0.027561985 0.057150483 -0.090283304 -0.0021870113 -0.10745625 -0.045949996 -0.027140979
-0.04262374 0.042555775 -0.038372397

weight f4 [7, 5]
00000000: 2e5e 1ebc be5c 27bc 8737 d13b 46b4 91bc
00000010: e305 91bc e9a1 88bd 898e 1ebd ba64 93bc
00000020: 6d35 efbc 5eda 9c3d 4529 613d 3b6f be3c
00000030: 2331 0cbc 749c 043c 6239 f03a 3236 35bd
00000040: e38e 913a fded 603c c701 bcbc 2181 153e
00000050: c335 e5bc 5fc5 cb3c 9ac7 3ebd d6ec 8abd
00000060: dad9 f43d 9b6c f93c 1141 6dbb 0067 89bc
00000070: 893a ca3c af02 b1bd ac8d 903d 17da 4f3c
00000080: 64c6 433c 445d 343c 891b e03b
-0.009666009 -0.010214983 0.006384793 -0.017786156 -0.017703002 -0.06671507 -0.03871015 -0.017992366
-0.02920028 0.07658838 0.054971 0.023246398 -0.008556637 0.008093942 0.0018327648 -0.044241138
0.0011105206 0.013728616 -0.022950066 0.1460004 -0.027979737 0.024874387 -0.046577074 -0.06783454
0.119556144 0.030447295 -0.0036202113 -0.016772747 0.024686115 -0.0864309 0.07058272 0.012686274
0.0119491555 0.011008564 0.00683922

weight f4 [6, 4]
00000000: 7c45 a83b 39db f23a 3b62 52bc ae30 42bc
00000010: 6897 d7bc c96e 5ebd 6723 66bd 13c9 69bc
00000020: 6adf a3bb 2504 583d 8ec3 92bc c1e8 90bb
00000030: dc98 d13b 2732 aa3b d266 31bd 3d3e 0abd
00000040: 48e2 56bd e1b7 07bd 51e9 a03c 14f1 19bd
00000050: 7326 cd3c 23fe 0dbd caab c1bc c3e2 bf3c
0.0051352363 0.0018528468 -0.012840803 -0.011852426 -0.026317313 -0.05430487 -0.056186106 -0.014269131
-0.0050009983 0.052738328 -0.017915513 -0.0044222777 0.006396396 0.005193967 -0.043310948 -0.03375076
-0.052461892 -0.033134345 0.019642504 -0.037583426 0.025042748 -0.03466619 -0.023641486 0.023423558

weight f4 [5, 4]
00000000: 00ea 02bc dea1 73bc e569 6cbb 9d8e fb3b
00000010: 71ad dd3c 1224 eabc 9a28 1e3b 2fc8 b9bc
00000020: 08a9 183d ae91 8e3c bf41 ff3c 7b76 dcbc
00000030: c0fd 4ebd 22ca 4fbd c6b9 cbbc 8312 b2bc
00000040: 9993 59bd dad5 4fbd 6468 b2bd d88e c83c
-0.00799036 -0.014870135 -0.003607386 0.007676913 0.027060242 -0.028581653 0.0024133087 -0.022678463
0.037270576 0.01740345 0.03115928 -0.026911965 -0.050534964 -0.05072988 -0.024868857 -0.021737343
-0.053119276 -0.050741054 -0.08711317 0.024482176

weight f4 [5, 4]
00000000: 6c46 183c a71d ee3a fcad 0cbd 9047 1eb8
00000010: 8d38 3c3d eb26 09bc a3a3 253d 85ce 043e
00000020: d5eb babb 968a 6b3b d133 93ba fe1c 6dbd
00000030: 99d6 00bc b6cb ce3c ad2c 133c 28b7 8c3c
00000040: c1cc 4c3d 5c5e a1bd ac1f 71bb 434a 17bd
0.009294134 0.0018166796 -0.034345612 -3.7736783e-05 0.04595237 -0.008371095 0.04043926 0.12969406
-0.005704383 0.0035940758 -0.0011230652 -0.057888977 -0.007863664 0.025243621 0.0089828195 0.01717718
0.049999956 -0.07879326 -0.003679256 -0.036936056

weight f4 [5, 4]
00000000: 645e 1fbc 65d1 65ba 9793 2a3c 52b5 5abc
00000010: 7631 a3bd 1764 8d3d 29eb 4cbc f958 873d
00000020: aee3 e2bc e8f9 b7bd 1020 42bc ea64 9bba
00000030: e177 3e3d 0e74 b4bd 50a7 483d f8f2 95bd
00000040: 2fb1 2f3d e483 223c 6694 7f3c 16a2 acbc
-0.009727094 -0.0008766859 0.010411165 -0.013348894 -0.07968418 0.06903856 -0.012507238 0.06608767
-0.027696457 -0.08983213 -0.011848465 -0.0011855636 0.046501044 -0.08811198 0.048987687 -0.07321733
0.042893585 0.0099191405 0.015599346 -0.021073382

weight f4 [7, 5]
00000000: ee3c 27bc af7b 3ebd e5f4 743d 6f27 d53d
00000010: bfd9 023e 57e3 80bc 5459 38bd 8cd6 733d
00000020: c196 ce3d 84b6 8ebc 5da1 c4bc 91dd 03be
00000030: 33a6 0f3d c4c2 2e3e 33c2 1f3e 5e5a 49bd
00000040: e01c aabd b67d 3a3d 6e54 913d f535 b63b
00000050: a301 24bd e9e1 c53c f612 553d f753 e03c
00000060: 71a3 08bd 9cb7 e0bc 4d1c 3ebc 6dcb 223d
00000070: 0e47 cc3b 1edf 8d3d 4ed5 a3bc e80b 923d
00000080: 5a7e 4dbd fafb 3ebd 0305 afbd
-0.010207398 -0.046504673 0.059803862 0.10407912 0.12778376 -0.015733404 -0.045007065 0.05953078
0.10087348 -0.017421015 -0.024002725 -0.1287749 0.03507061 0.17066485 0.15601425 -0.049158446
-0.08306289 0.045530044 0.07096182 0.0055606314 -0.040040623 0.024155574 0.052020036 0.027383788
-0.033358995 -0.027431302 -0.011603427 0.039744783 0.0062340563 0.06927322 -0.019999173 0.07131177
-0.050169326 -0.046627022 -0.08545878

weight f4 [7, 5]
00000000: 3fdb a0bb 740c 81bc c1c3 7fba 6766 28bb
00000010: af65 2dba ef47 023d 7cf0 053d 6bb9 8bbc
00000020: e052 783c 1a46 9dbc 4c63 8dbd 2968 623d
00000030: 1744 ae3d c5af 853d 6a1d 73bd f8aa 3839
00000040: 8a21 5dbc 9872 adbc 9ccb efbb 66e5 8a3c
00000050: 417e 963d a58b 0dbd a62f 7cbd 13c4 56bd
00000060: 2705 523d 5832 433d 2800 84bd 9ff2 d8bc
00000070: 64cb f4bc b7b5 763d 0360 07bb 7801 57bb
00000080: 5df8 76bc d6a0 973a 4a5a 1f3d
-0.0049089487 -0.015753008 -0.00097566476 -0.0025695802 -0.00066145783 0.031806882 0.032700047 -0.017056188
0.015156478 -0.019198466 -0.06903705 0.055275116 0.08509081 0.06527666 -0.059354223 0.00017611298
-0.013496766 -0.021172807 -0.0073179733 0.016955089 0.073483 -0.034557004 -0.06156888 -0.052433085
0.051274445 0.047655433 -0.06445342 -0.026482878 -0.02988214 0.06023189 -0.0020656593 -0.0032807272
-0.015073863 0.0011568319 0.038904466

weight f4 [4, 3]
00000000: 65d2 79bc 2321 a33b 6550 90bc 734a c8bc
00000010: 9e60 1c3d b763 62bd ec68 203b 7d46 b2bd
00000020: 5004 273c b689 a83b 05ae 933c 0caf 0e3d
-0.015247916 0.0049783154 -0.01761646 -0.024449563 0.03817808 -0.055270877 0.00244766 -0.08704851
0.010193899 0.0051433695 0.018027315 0.034834906

weight f4 [6, 4]
00000000: 5428 153c e860 1f3b 39cc 58bb 22e0 1f3c
00000010: 1a6e abbb 362d 91bc 230a 453b 5f11 f3bc
00000020: 02d2 033c a11e a7bc 5655 dabc 5618 053d
00000030: 6819 913b 31b3 e2bc 15f7 dcbd 5a80 1f3d
00000040: bae4 afbb 8c5e 4f3c a74f 833d 530f da3b
00000050: e635 b83c b1c1 17bd 0b2a 96bd 0958 233d
0.009103853 0.0024319235 -0.003308071 0.009758027 -0.005231631 -0.017721754 0.0030065856 -0.02967137
0.008045675 -0.020400347 -0.02665202 0.03249391 0.0044280775 -0.027673336 -0.10789315 0.038940765
-0.0053678425 0.012656819 0.06411677 0.006654659 0.022486638 -0.037049953 -0.07332238 0.03987888

weight f4 [6, 4]
00000000: 53ae 173c d2cb 3abc f541 89bb fa3d 8bbc
00000010: b4bf 00b8 56d3 4b3c cecf 483c 8af0 2f3d
00000020: 6ba2 ba3c fc92 11bc a7e9 ebbc 2a70 183d
00000030: 34bd c43d 37b3 b8bd c684 b1bd 9882 ebbb
00000040: f1da 2b3b 8665 a63c 2c29 443d 94f9 bf3c
00000050: 28a8 9e3d 7dbf 1bbd 1140 9fbc f010 8abd
0.009257871 -0.011401134 -0.004188771 -0.016997326 -3.0696116e-05 0.012440523 0.012256576 0.042954005
0.022782525 -0.008885141 -0.028797938 0.037216343 0.096064 -0.090185575 -0.08667903 -0.007187199
0.0026223029 0.020312082 0.047890827 0.023434438 0.07746917 -0.038024414 -0.019439729 -0.06741512

weight f4 [4, 3]
00000000: 9bb4 2abc 3771 923c e59d 6bbc ff1c b6bc
00000010: a5b0 973c 2134 ba3c 778d 263c b162 5e3b
00000020: 9820 2b3c baf6 8e3d 792c 53bd 1ec5 883d
-0.010419036 0.01787625 -0.014380907 -0.022230623 0.018516848 0.022729935 0.010165564 0.0033933336
0.010444783 0.06980653 -0.051556084 0.06678222

weight f4 [10, 6]
00000000: b36c 4abb d38a 77bb 3a19 a0bb 7537 8dbc
00000010: b7b2 823b 9826 06bc 41ff c43d b371 97bd
00000020: 5204 ae3a 48c2 4b3c e8bf 96bd 9f43 fa3d
00000030: 8d66 41be 4427 723d 437f 8cbd d12f e6bd
00000040: d497 a53d 84b3 36be e58d e4bd 96a0 5d3d
00000050: 5125 1e3d 60d6 6ebd 2af4 dc3c 3455 59bd
00000060: 39d3 05bd 492a fc3d f99c 35bd 9de6 edb9
00000070: 8f42 85bc b983 7cbc 3615 9fbb d748 3cbb
00000080: f6a7 7cbc c0c4 ef3b a7a8 d43c afc0 37bd
00000090: 571e 593c d5aa e33b 77c2 693c 2a60 e63c
000000a0: 1962 9abc cd85 ea39 2c69 f9bd 616c 51bc
000000b0: f590 dc3c 910c 01bc 0c70 31bb 55a7 a2bd
000000c0: 0036 73bb 56d8 7cbd 6799 60bc e816 03bd
000000d0: f5bb 873b 7d10 533a a14e 843d 17b7 30bd
000000e0: 87bd 703d 85e4 2f3d bfd3 16bd 280d f93d
-0.0030887544 -0.0037771955 -0.0048858197 -0.017238358 0.0039885896 -0.008187912 0.09618998 -0.07394733
0.0013276434 0.012436457 -0.07360822 0.12219929 -0.18886776 0.059119478 -0.06860211 -0.11239589
0.080855995 -0.17841917 -0.11159877 0.054108225 0.038609806 -0.058309913 0.026971895 -0.05305977
-0.03267214 0.12312753 -0.044339154 -0.00045375983 -0.01626709 -0.0154122645 -0.0048548235 -0.002872994
-0.015420904 0.0073171556 0.025959326 -0.04486149 0.0132518625 0.006947855 0.014267555 0.028122026
-0.018845605 0.00044731647 -0.12178263 -0.012782187 0.02692459 -0.007876531 -0.0027074842 -0.07942072
-0.0037111044 -0.06172975 -0.013708449 -0.032004267 0.0041422793 0.0008051468 0.0646031 -0.043143358
0.058774497 0.042942543 -0.03682303 0.121607125

weight f4 [7, 5]
00000000: de6c 44ba 0c74 203c fc6f 6fbc 9e7b 4dba
00000010: f31c b4b9 5938 853d 7f63 6ebd 04ff 483d
00000020: a33c 2b3d 49c7 263d 491b 0ebd 81ac 073d
00000030: 7ef7 74bd 8356 fcbc afe1 79bc b3e9 babd
00000040: e097 663d 131e 893d 79d2 57bb 691b ae3c
00000050: 4f30 d73c b2d1 8bbd a48d 7e3c b8fb 0abc
00000060: 638d 883d bf71 4f3c 867e 8bbc e49c 063d
00000070: bfd8 dd3c 3b3d 8a3d a6e6 1abd 4d0b af3b
00000080: 4222 40bd 796a 0bbd 02bf ccbc
-0.0007493029 0.009793293 -0.0146141015 -0.000783855 -0.00034353844 0.06504888 -0.058200356 0.049071327
0.041805875 0.040717397 -0.03469399 0.033123497 -0.05980634 -0.03080297 -0.015251561 -0.09126606
0.056297183 0.06695189 -0.0032931848 0.021253305 0.026268153 -0.068271056 0.015536699 -0.008482866
0.066675924 0.0126613965 -0.017028105 0.032864466 0.027080892 0.0674996 -0.03781762 0.0053419233
-0.04690767 -0.034037087 -0.024993423

weight f4 [49]
00000000: e5b1 823f ecf7 843f b9ac 7e3f 554b 813f
00000010: c034 843f 47c5 7f3f b922 813f 4e57 813f
00000020: 1e1f 823f dc67 823f ff19 793f ea57 813f
00000030: a81e 803f a291 7c3f 25c7 833f 1a5f 7e3f
00000040: 1a6b 813f 6f4b 7c3f b9a4 7b3f 6955 813f
00000050: 9938 853f 814a 7a3f a2e4 7a3f d9ee 803f
00000060: 11ce 863f 6ccf 743f d9cc 823f 5669 7d3f
00000070: f442 723f d983 793f 1df7 7b3f 426d 853f
00000080: ea39 7a3f ead4 843f 3dc7 7a3f 1c79 683f
00000090: 6e0c 7b3f d315 873f 364d 833f 26af 7b3f
000000a0: ed55 7d3f 19be 813f 80ba 7f3f 90cf 7d3f
000000b0: 0362 803f f7dd 773f 2efa 7a3f affa 853f
000000c0: 5e12 793f
1.0210539 1.038816 0.99482304 1.0101115 1.0328598 0.99910396 1.0088722 1.0104768
1.0165746 1.0187945 0.9730529 1.0104954 1.0009356 0.9865972 1.0295149 0.99363863
1.011081 0.985526 0.9829822 1.010419 1.0407897 0.97769934 0.98005116 1.007289
1.0531636 0.95629 1.0218765 0.98988855 0.9463341 0.9746681 0.9842394 1.0423968
0.9774462 1.0377476 0.97960263 0.908098 0.9806584 1.0553535 1.0257938 0.9831413
0.9895924 1.0136138 0.9989395 0.9914484 1.0029911 0.96823066 0.98037994 1.0467128
0.9729365

bias f4 [49]
00000000: 4163 643d f2f9 3ebd 89b5 30bd db45 efbc
00000010: 95d8 e53c a0d8 b63b 56d3 d9bd e5f6 cb3c
00000020: 841c b0ba f6df c1bc 3856 7cbc 789f 07bd
00000030: 4c4b 163c 28ec b53c aeca 06bd 1e73 7bbd
00000040: 70c7 3bbc eb1e 40bc a052 67bc 6b22 94bc
00000050: 9bef 5cbd 8aa9 8abc 4c7f 113d a9f2 513d
00000060: eefa 30bd aa50 373b 8800 193d 0209 0d3d
00000070: 4e06 ea3a 115d 77bb d4fb 343d 820d 0fbd
00000080: 095d 13bb e3fd 39bd a9bb 003c ca7b f2bc
00000090: 9061 90bc b068 1cbc 8413 f8bc a35b aabc
000000a0: d64e 3d3c 70b9 06bd 71ab cc3b 5b9c 75bc
000000b0: c765 2ebc f8d7 83bc 8cba d0bc 7be1 1dbd
000000c0: 7e15 d9bc
0.05575872 -0.046625085 -0.043141875 -0.029208114 0.028057376 0.005580023 -0.10636012 0.024898002
-0.0013436233 -0.023666363 -0.0154014155 -0.033111066 0.009173226 0.022207335 -0.032908134 -0.06138908
-0.011461124 -0.011726121 -0.01411882 -0.018082818 -0.053939443 -0.016926546 0.03552179 0.05125681
-0.043208055 0.0027971664 0.037354022 0.03443242 0.0017854662 -0.003774468 0.044185475 -0.03492499
-0.0022485873 -0.04540814 0.007857242 -0.029600043 -0.017624646 -0.009546444 -0.030282743 -0.020795649
0.0115544405 -0.03289169 0.0062460233 -0.014990891 -0.010644383 -0.016094193 -0.025479577 -0.038545113
-0.026499506

running_mean f4 [49]
00000000: 8849 b6bc e737 223c 21c6 8a3c 1000 a0bb
00000010: b077 a23c c979 7e3c e444 19bb fc6a 233c
00000020: a86e a93c e88a 3c3c 4c0e 633c 9b46 d139
00000030: 4827 a8bc 1998 c9bb 58a0 903b 8432 66bc
00000040: ac8d 0dbc 46db 0d3d 2611 68bc bea7 953c
00000050: faad 233b 2ecb 02bb 6860 2cbc 8e4b 98bc
00000060: 9bf2 a9bb 8ca2 0cbc 63ce 043b 21eb 6d3c
00000070: 5e2c 013a e1d9 f03b dbcb a5bc 41c1 6dbc
00000080: 50e3 803c 4dd0 45ba d753 743b 9593 58bc
00000090: 78ea c83b 75ad a53b 67d0 4abb 8d4c d5bb
000000a0: b310 e2bb 24bc 8e3b 7a3a b03b 9d1a d63b
000000b0: 6fe0 af3b 52e2 073c 7ec1 ef3b 77f2 063c
000000c0: de14 933b
-0.02225186 0.0099010235 0.016940178 -0.00488282 0.019832462 0.0155319655 -0.002338701 0.0099742375
0.020682648 0.011507727 0.013858389 0.00039916192 -0.020526543 -0.0061521647 0.0044136457 -0.01405013
-0.008639734 0.034632944 -0.014164245 0.018268462 0.0024975524 -0.001995753 -0.010521032 -0.018590715
-0.0051863915 -0.008583676 0.0020264618 0.014521391 0.00049275707 0.007350192 -0.020238807 -0.014511407
0.015733391 -0.0007545993 0.0037281418 -0.01321878 0.0061314665 0.005056078 -0.0030946971 -0.0065093697
-0.0068989634 0.004355924 0.0053780647 0.0065339343 0.0053673307 0.008293705 0.0073167672 0.008236519
0.0044885715

running_var f4 [49]
00000000: 7413 823f 62fc 803f f6fe 953f 5f51 4c3f
00000010: 0f77 253f f079 803f 96f9 7d3f 3d01 7e3f
00000020: 500a 7d3f 9492 803f 7744 7c3f 3b62 813f
00000030: 7897 813f 5078 703f b9ad 7b3f acf1 733f
00000040: db58 7c3f 89d4 a33f c95f 723f b7a3 7d3f
00000050: 46d2 803f 31d9 7d3f 80e2 803f e93a 773f
00000060: 0ac5 763f 3942 7c3f 82c4 7f3f 8b6e 7b3f
00000070: ffd6 833f 9b96 843f a834 773f c63c 6f3f
00000080: 0261 8d3f 769f 813f 9b04 7e3f 84e2 443f
00000090: 99a3 873f 3a16 7f3f b009 7b3f 4521 7c3f
000000a0: 5e05 7c3f 885a 783f 91f2 7a3f e849 7c3f
000000b0: 3e18 7b3f ae82 7e3f 7788 7e3f 4587 803f
000000c0: 08fa 7a3f
1.0162187 1.0077021 1.1718433 0.7981166 0.64634794 1.0037212 0.9920896 0.9922064
0.9884386 1.0044732 0.9854197 1.0108103 1.012435 0.9393358 0.98311955 0.95290637
0.9857308 1.2799236 0.94677407 0.99077934 1.006417 0.9915953 1.0069122 0.96574265
0.9639441 0.9853855 0.9990922 0.9821555 1.0299987 1.0358461 0.9656472 0.9345211
1.104523 1.0126789 0.9922578 0.76908135 1.0596801 0.9964329 0.98061657 0.98488265
0.9844569 0.9701314 0.98026377 0.9855027 0.98083866 0.9941815 0.9942698 1.0041281
0.9803777

weight f4 [200, 210]
00000000: 50fd 9fbc 2128 913d 0a7b 7fbd 7504 09ba
00000010: 35ba 7e3d 995a ba3d 8633 833c b6b7 e3bc
00000020: d2b2 24bd 1096 b5bb f794 98bd 0d7f 19bd
00000030: b8e6 353d 9ec8 bebc b516 c73d 7424 513d
00000040: d121 37bd 886c 37bc 6eef 4cbc 4e4d 203c
00000050: 6e03 efbb 9058 823c 45bb 2c3b e580 0ebc
00000060: 3d03 033d 57c3 db3c 4d35 613c 26d3 983d
00000070: 6112 573d a11e 18bd 1e8f 253a db03 84bd
00000080: 30dd f63c a63f a0bd 4883 623d fbac 983d
00000090: 621c fe3c 31ec 07bd b49d 283b d838 4e3d
000000a0: 4f98 ef3a 6b82 843c 3e87 0cbd 6ceb 30bc
000000b0: daa3 a5bc 1150 933d 7328 163d 44ae 913b
000000c0: 5988 8b3d c86c a4bd f0e2 8a3c 292e 03ba
000000d0: ada2 153d af48 1ebd 4376 b2bd 9b64 4dbd
000000e0: 3896 86bd b450 2fbd bd85 873d 2649 723a
000000f0: 4b0b 18bd 04c8 a4bc 396d 653b 2fb1 b2bc
00000100: 283e 05bd 44bc 213d 2e0d 913c fdb1 613d
00000110: 444f 0abd 6858 3fbd e535 bfbc 3a4a 32ba
00000120: d48d c63c c4fa ab3d 87dd 453d e07b 70bd
00000130: 45e3 e73c c7d3 b43c 9606 653b 3f43 0ebd
00000140: 9ed5 613d 7f62 3d3d 378b 94bc 8c49 7a3d
00000150: 07f2 353b 3b9b 623c 1110 88bc 5e09 17bd
00000160: b241 c7bd 3d22 593d 550d 62bd 194a 753c
00000170: 59fa 513d 36ec 303d 1b26 08bd 0409 41bc
00000180: 680b abbc 6745 7cbd 0245 a03d 970f 03bc
00000190: c258 76bd a46d b5bd 6d88 9cbb 801b 71bd
000001a0: 84ff f4ba a7fa 0a3d 4a1d 50bd db62 cb3c
000001b0: f685 9cbc 0e4a 22bd 2261 99bd 2181 0cbc
000001c0: 90e3 e1bd 5e62 f23c 8824 ee3a c66b 053d
000001d0: 3891 18bd 602e 1c3d 3e13 b0bd e449 95bd
000001e0: 3c6a e43c 490b 62bd fbb2 cbbc acaf b23b
000001f0: af54 22bd 945c adbd f913 1fbd d62b bb3d
00000200: 3cfb 1abc 0cc6 103c 7d18 97bd b801 bd3d
00000210: b933 683c bc70 813b 79cf 82bc 7f34 2d3d
00000220: 8171 4b3d d0b9 483d 6863 77bc 1ade a13c
00000230: 5e5e 523c 68f2 ccbc 8b77 913d 7f11 2f3d
00000240: 5f26 973d aea1 653c 9e23 d9bd 2a50 b13c
00000250: f678 0e3d 07bb 3f3d 5ea9 69bc c610 e13c
00000260: 02f1 8b3d 8f24 00bb 8c2e 4b3d 4525 a63d
00000270: bd27 0b3d 0163 3d3d 81c6 59bd 5771 523d
00000280: a1e1 973d 4184 33bd 1036 93bb 0f68 91bd
00000290: 86a2 9dbc b7f1 c13c 6104 2d3d 9368 8b3b
000002a0: 1367 a7bd 7958 393d 69d8 8e3c d01b 15bd
000002b0: 0f57 3a3d 2670 673d ea83 34bd 7a63 873b
000002c0: f52b c4bc 433c 8a3b 1518 b8bb b786 d3bc
000002d0: 3178 8cbd 26cb 95bb 284c 87bb 8719 bfbc
000002e0: 19b3 683d 0525 e4bc 2469 5e3d f55b 863d
000002f0: bd13 4cbc 5d76 eebb e623 573d a692 acbd
00000300: 3ed8 c3bc 40a8 093d d3a4 543d 1d48 d63c
00000310: 7e9d 803d e34f 6bbc 98f1 273d 2cb7 7f3d
00000320: 7810 5dbd 4f66 78bd ccd7 44bd 98e4 443d
00000330: 7bf3 6bbd 72f2 ebbc 8906 4f3d de9c 0fbd
00000340: 0ba5 763d 9ddc d5bc 35df 0b3d 9000 343d
00000350: a984 c23b eaaf 033e 3e56 2f3d c89a 2abd
00000360: 452a 163c 549c 0e3d fb55 cebc 2c5d 03be
00000370: 52c3 1c3d b21a b83d 559b 57bd 7d64 0cbe
00000380: 1666 98bd 4506 ad3d 8121 8abd baea c2bc
00000390: bc52 933d 165a a9bd cdbc 8abb 1411 13bb
000003a0: bac9 94bd 958b c9bd 5055 323d e0ba 4fbd
000003b0: 9264 c43c 049a 403d f000 c33c 599b 973c
000003c0: dec0 f23c 0dd2 c83b 2016 ae3c 1cce b4bd
000003d0: b584 853c 7292 4d3d e5f2 5f39 d228 ca3b
000003e0: f04b 1ebd 0754 983d ea2a cdbb 98cd 01bd
000003f0: 5199 82bd ea43 793d 2cfc 353d 22b9 4dbd
-0.019529969 0.07087732 -0.0623732 -0.00052267994 0.0621893 0.090993114 0.01601578 -0.027797561
-0.0402096 -0.0055415705 -0.07450288 -0.03747468 0.044409484 -0.023289021 0.09721128 0.051060155
-0.044709984 -0.011195309 -0.012508256 0.009784056 -0.00729411 0.01591137 0.0026356739 -0.008697723
0.03198551 0.026826544 0.013745618 0.07462148 0.052507762 -0.037138585 0.00063155766 -0.06446048
0.030134767 -0.0782464 0.05530098 0.074548684 0.031019393 -0.033184234 0.0025728764 0.05034718
0.0018279644 0.01617547 -0.034308665 -0.010798316 -0.020219732 0.07193006 0.03665967 0.004445823
0.068131156 -0.08028561 0.016953915 -0.0005004132 0.036532093 -0.038643535 -0.08713963 -0.050144773
-0.06571621 -0.042801574 0.066173054 0.00092424673 -0.037120145 -0.020114906 0.0035007729 -0.021813003
-0.03252998 0.039486185 0.01770648 0.055101383 -0.033767 -0.04671517 -0.023341129 -0.0006801222
0.02423755 0.08397439 0.048306968 -0.058711886 0.028306613 0.02207364 0.0034946552 -0.0347321
0.05513536 0.04623651 -0.018132789 0.061105296 0.0027762668 0.013830955 -0.016609224 -0.036874168
-0.09729327 0.053011168 -0.055188496 0.01497128 0.05126414 0.04319402 -0.033239465 -0.011781935
-0.020879462 -0.061589625 0.07825662 -0.007999322 -0.06014324 -0.08858803 -0.0047770054 -0.058864117
-0.0018691872 0.033930447 -0.050809182 0.024827411 -0.019106846 -0.039621405 -0.0748923 -0.008575709
-0.11029732 0.02958792 0.0018168846 0.032573484 -0.037247866 0.038130164 -0.0859742 -0.07289484
0.027882688 -0.055186544 -0.024865618 0.0054530706 -0.03963154 -0.084649235 -0.038837407 0.091392204
-0.009459313 0.008836281 -0.07377718 0.092288435 0.014172488 0.0039502066 -0.015968071 0.042286392
0.049668793 0.04900533 -0.015099384 0.019759227 0.012839882 -0.025017932 0.07102879 0.042741295
0.073803656 0.014015598 -0.106024966 0.02164467 0.034783326 0.046809223 -0.014261572 0.027473819
0.06833078 -0.001955304 0.049604937 0.08112577 0.033973444 0.046236996 -0.053167824 0.05137762
0.07416082 -0.0438273 -0.0044925287 -0.07099926 -0.019242536 0.023674829 0.042240504 0.0042544096
-0.08173957 0.04525039 0.017437177 -0.036403477 0.04549318 0.056503437 -0.044071116 0.0041317316
-0.023946742 0.0042186095 -0.005618105 -0.025821073 -0.06858862 -0.0045713363 -0.0041289516 -0.023327602
0.056811426 -0.027849684 0.05429949 0.06560508 -0.012455878 -0.0072772936 0.05252447 -0.084264085
-0.023906823 0.03360772 0.051915 0.026157433 0.06280039 -0.014362308 0.041001886 0.062430546
-0.053970784 -0.060644444 -0.048057362 0.048069566 -0.057605248 -0.02880213 0.05054334 -0.03506171
0.06021599 -0.026106173 0.034148414 0.04394585 0.0059362245 0.12860075 0.042806856 -0.041651517
0.009165351 0.034817055 -0.025187483 -0.12828511 0.03827221 0.08989467 -0.05263837 -0.13710208
-0.07441346 0.084484614 -0.067446716 -0.023793567 0.07193515 -0.08269136 -0.0042339326 -0.00224406
-0.07265039 -0.09841076 0.04353839 -0.050715327 0.023973737 0.04702188 0.023804158 0.018506693
0.029632982 0.0061285556 0.021250784 -0.08828375 0.016298631 0.05018849 0.00021357423 0.006169417
-0.03864664 0.07437902 -0.0062612193 -0.03169021 -0.06376899 0.060855784 0.044429943 -0.050225385

weight f4 [200]
00000000: d9f8 793f c029 833f 6f8d 813f 7bf3 7f3f
00000010: 801f 7c3f 2bc8 8c3f 1259 803f a5f3 813f
00000020: 4022 7a3f c8a8 753f c6ea 833f 6544 803f
00000030: 4fc6 813f e8bd 793f 589d 813f 32bd 7c3f
00000040: 4fbe 823f c0a0 813f fc0c 7d3f b3d8 803f
00000050: d60d 813f 97a8 7e3f ef5e 813f 9a52 7b3f
00000060: 98b2 823f 7fcb 803f e664 703f 4ba4 8b3f
00000070: 350c 7f3f cfad 723f 5c77 833f 4ddd 803f
00000080: 42f6 803f 56cb 7d3f 57cf 833f ebc8 7b3f
00000090: f0d1 7f3f 7fef 7b3f 7f27 813f abbc 823f
000000a0: d375 763f 42a6 823f 45cc 793f e47d 803f
000000b0: 9f3a 7d3f 9430 813f 3aff 813f 9752 803f
000000c0: 43d8 823f e161 813f 656a 7c3f f9bf 813f
000000d0: 119b 813f e8ba 853f dae9 823f 91bd 803f
000000e0: 7e9e 773f c432 823f faca 7e3f 7144 813f
000000f0: 5f3b 823f 04fe 7e3f 8b4d 823f 4954 803f
00000100: ab71 7d3f b0ab 7c3f 2ef9 813f d8c3 853f
00000110: 2b2f 833f c7f3 833f e380 803f b78e 7e3f
00000120: f9a3 7a3f 9823 813f b4d6 7d3f e6c0 813f
00000130: 3882 803f fe92 803f 13e0 7f3f b9cc 843f
00000140: adc6 7c3f e701 7c3f 6e2d 7f3f dfa6 813f
00000150: 9f99 7a3f 99da 833f ae40 7a3f dc61 813f
00000160: 1218 7b3f d1ca 823f 0531 823f 9e24 823f
00000170: 69e8 7f3f 80ac 843f b9c9 7f3f 10f6 823f
00000180: 5a09 853f 29b5 813f b614 7a3f 93a8 803f
00000190: 0d69 833f c574 813f 58ad 853f ab11 813f
000001a0: cd4d 733f 44eb 7f3f c7f1 783f 8102 7d3f
000001b0: e491 773f 93e2 803f 8c3b 803f 395a 803f
000001c0: c4a8 7c3f db4a 833f ed38 7f3f ace8 7c3f
000001d0: 2ac5 843f 27b5 783f 5e3a 893f f81a 7c3f
000001e0: 531d 7a3f 2728 823f 6754 773f d47d 813f
000001f0: 6466 783f 92eb 783f c935 773f f95e 7b3f
00000200: fc95 7e3f 87c0 7b3f b0bd 773f 7ed0 7a3f
00000210: 8c9c 753f f580 843f f6e3 7f3f fbc3 7c3f
00000220: cf43 813f 923c 783f 9214 813f c32b 7a3f
00000230: 5688 7f3f 3f40 833f d4bd 7e3f 4b7f 833f
00000240: 239c 7d3f 279a 853f 89b8 843f acf7 863f
00000250: c660 833f c79d 7f3f 1178 7b3f b273 7b3f
00000260: f3a0 7d3f dca4 7c3f f95e 7a3f de0f 7f3f
00000270: d8fa 823f cb23 7c3f 3d55 803f 953c 843f
00000280: c94b 7f3f c3ef 7b3f 678d 803f 47f9 7f3f
00000290: bdb7 803f d90e 793f 26b0 7c3f 7582 773f
000002a0: 335c 823f 207a 803f e2d8 813f 29ca 803f
000002b0: 2036 803f 306e 813f 7b32 783f 8d56 7e3f
000002c0: b2a0 7d3f 7822 803f be1e 803f 828e 783f
000002d0: 64e5 803f 79a0 7d3f 439d 803f 2ab4 7a3f
000002e0: 5aac 823f 090e 803f b0f4 803f a623 7c3f
000002f0: a41c 7c3f eee3 803f f775 7c3f a39a 803f
00000300: d1a9 733f 73f3 823f 13aa 7d3f cba8 863f
00000310: 176f 7e3f 84bf 7f3f 5c0c 803f 5d59 863f
0.97645336 1.0247116 1.0121287 0.99980897 0.98485565 1.0998586 1.0027182 1.015248
0.9770851 0.95960665 1.0306022 1.0020872 1.0138644 0.975554 1.0126143 0.9872619
1.0214328 1.0127182 0.9884794 1.0066131 1.0082347 0.99476 1.0107096 0.98172915
1.0210752 1.0062102 0.9390396 1.0909513 0.99628 0.9479646 1.02708 1.0067536
1.0075152 0.9913839 1.029765 0.9835345 0.99929714 0.9841232 1.0090178 1.0213827
0.96273535 1.0206988 0.97577316 1.0038419 0.98917574 1.009295 1.0156014 1.0025204
1.0222248 1.0107995 0.98599845 1.013671 1.0125448 1.0447664 1.0227616 1.0057851
0.96726215 1.0171742 0.9952847 1.0099012 1.0174369 0.9960635 1.0179914 1.0025722
0.9900157 0.98699474 1.0154169 1.0450392 1.024877 1.030877 1.0039333 0.99436516
0.9790645 1.0088987 0.99155736 1.0136993 1.003974 1.0044858 0.99951285 1.0374976
0.98740655 0.984404 0.99678695 1.012905 0.9789066 1.0301086 0.97754943 1.0107989
0.98083603 1.0218145 1.017121 1.0167425 0.99964005 1.0365143 0.9991718 1.0231342
1.0393479 1.0133411 0.9768785 1.0051445 1.0266434 1.011376 1.0443525 1.0083517
0.9504059 0.9996836 0.9724392 0.98831946 0.96706986 1.0069145 1.0018172 1.0027534
0.98695016 1.0257219 0.99696237 0.9879253 1.037267 0.97151417 1.0720937 0.9847865
0.97700995 1.0168504 0.9661316 1.0116525 0.97031236 0.9723445 0.96566445 0.9819179
0.9944761 0.9834065 0.96773815 0.97974384 0.95941997 1.0351855 0.99957216 0.9873654
1.0098819 0.9696742 1.0084403 0.97723025 0.9981741 1.0253981 0.99508405 1.0273222
0.9906637 1.0437669 1.0368816 1.0544333 1.0263908 0.99850124 0.9823008 0.9822341
0.99073714 0.98689055 0.97801167 0.99633586 1.0232801 0.98492116 1.0026013 1.0330988
0.99725014 0.9841272 1.0043153 0.9998974 1.0056072 0.9728828 0.9870628 0.96683437
1.0184387 1.003727 1.0144312 1.0061694 1.0016518 1.0111752 0.9695203 0.99350816
0.99073327 1.0010519 1.0009382 0.9709245 1.0070004 0.99072987 1.0047992 0.9793116
1.0208848 1.0004283 1.0074673 0.98491895 0.984812 1.0069559 0.986175 1.0047191
0.95180994 1.0230545 0.9908764 1.0520262 0.9938826 0.99901605 1.0003772 1.0496022
