model/ag-20250203_153657/models/NeuralNetFastAI_BAG_L2/S1F1/model-internals.pkl (torch, 329643 bytes, 50 tensors)

weight f4 [6, 4]
00000000: fda4 0cbb d0e6 f1bb a551 b73b ac28 293b
00000010: 9823 24be 2d75 04bc 9d9e dc3d bad5 883d
00000020: 1d03 2b3d 7d3f 9b3d 7a37 f73d ecfd d83d
00000030: 5249 27bd de50 45bc d45b b1b9 edee 11bd
00000040: 4069 923b 0b6b 6cbd cd9e 97bc 0c2d 47bc
00000050: a0c1 b5bd 3a3c 3ebb e062 8dbc d3bb 53bd
-0.0021460645 -0.0073822513 0.0055944496 0.0025811596 -0.16029203 -0.0080845775 0.107724406 0.0668139
0.041751016 0.07580469 0.12071128 0.10595307 -0.040841408 -0.012043206 -0.00033828488 -0.035628248
0.004468113 -0.05771927 -0.01850834 -0.012156736 -0.08874822 -0.0029027597 -0.017259061 -0.051692795

weight f4 [5, 4]
00000000: ecc7 1c3c ab7f 633b ec17 16bc 2274 12ba
00000010: 7766 223d b80d de3c ad0e 113d 05ea d1bd
00000020: 0525 06bd 2044 63bc a8ac 803b 8e0c ec3c
00000030: aa40 fcb9 1c23 a53d ac47 683d 3781 bb3c
00000040: d0ba 6dbd fb28 12bd 0d2b 9dbb c39f 903c
0.009569149 0.0034713547 -0.009160977 -0.0005586763 0.0396485 0.027106151 0.035414387 -0.10249714
-0.03275015 -0.013871223 0.003926832 0.02881458 -0.00048113364 0.08063337 0.056708977 0.022888763
-0.058039486 -0.035683613 -0.004796392 0.017654305

weight f4 [5, 4]
00000000: 02a9 8f3a 925f 05bc 4623 ce3b d91d 9cbc
00000010: e7a5 4a3e 090c 423e 5565 033e 1501 9d3b
00000020: cfd2 01be a04a bcbd f88d ccbd 555e 53bd
00000030: afda c03c fd95 a73d 5831 7fbd 2d90 c03d
00000040: b1f1 94bc 264d 99bd 76e1 c9bc bad8 3abc
0.0010960402 -0.0081404615 0.006290826 -0.019057201 0.19789849 0.18949904 0.12831624 0.0047913888
-0.12678073 -0.09193921 -0.09988016 -0.051603634 0.023541776 0.08182905 -0.062302917 0.09402499
-0.018181654 -0.07485418 -0.024643641 -0.011404211

weight f4 [6, 4]
00000000: c2be 723c 5936 e4bb 8d4a eb3a fdc5 5d3c
00000010: a9de 91bc d836 e53d 4b31 2a3d f96d fbbc
00000020: 14df fdbd 4ed4 013e 6bc1 e23d d790 033e
00000030: 1a8a 613e 4f2e 79be 5515 94bd d418 f0bd
00000040: ce83 81bb 2cf3 cd3d d987 013d cfea 05bc
00000050: 88b1 793c 3b1f 68bc 189d 0fbd 3221 e3bc
0.014815988 -0.0069644866 0.0017951295 0.013535974 -0.017806368 0.11192101 0.041550916 -0.030692087
-0.123960644 0.12678644 0.11072048 0.12848221 0.22025338 -0.24334072 -0.07230631 -0.117234856
-0.00395248 0.10056147 0.031623695 -0.0081736585 0.015240081 -0.014167602 -0.035061926 -0.02772579

weight f4 [4, 3]
00000000: fe52 273c 7799 36bc 070f ee3b efca c4bc
00000010: 1fd1 343d 1ac4 c4ba c7fb 193e acce e03c
00000020: bc57 143d d270 2ebe d27b 31be 8863 3bbd
0.010212658 -0.011144987 0.007264975 -0.024022548 0.044144746 -0.0015012056 0.15037452 0.027442299
0.036216483 -0.17035225 -0.1733239 -0.045749217

weight f4 [26, 10]
00000000: 8969 77ba da50 333c b874 553c 65cd 3ebb
00000010: cc32 883b dd5e 38bc 9973 05bc abdd 1abc
00000020: 20fb 393b 2939 153b 3ca6 87bb 1e99 e1bc
00000030: c241 1a3c 180a 34bc e40d b83c 1465 e5bc
00000040: ec6a 583d a6d2 8dbc 6237 6a3b bebc 63bc
00000050: 488c 243c 4af1 ae3a 015f adbc 971d 913b
00000060: b4c7 743c 6a79 96bc 5bda db3c f09a 943d
00000070: 8496 e0bc a822 9abd 9b22 ffbc b61a 7a3b
00000080: 6d3b 76bd 9a6f a2bb 17cd b9bc da70 293c
00000090: 889c 12bd e99e 243d b1b5 863b dd3d c93b
000000a0: 1c13 f73d 7e8c c03d 00f5 513b 1984 5c3d
000000b0: c85d 1fbe 61e8 f2bd 393d 653d 4951 aebd
000000c0: 739b 87bd 3f97 383e abfd 103d 88bc 9ebc
000000d0: 22ef 48bd 67ac 73bd 41de 4d3d dff9 0d3c
000000e0: 036e dbbc 67db 90bd 6f3c 0f3d b7c9 743d
000000f0: ebde 813c abb1 24bd 8d5b 1cbe d6d1 d23c
00000100: 7591 72bd 9fab 99bc 5267 bd3c 5825 c9bc
00000110: c981 28bd 23a5 293d 95f2 8cbc c482 943d
00000120: 7d13 163e 1e86 f23b 451c 35ba 3886 82bd
00000130: d90e d73d 68d7 153d d1bf d2bb 7c2d 1bbd
00000140: a7ff 28be b968 2bbe 20e2 0abd c0bb e1bd
00000150: baba 2b3e 108a e33d 5147 74bd fb0f 9d3d
00000160: dbc5 d23c 2ede 28be 8a2c 013d a4c6 2d3d
00000170: 49ce a23b 8ee1 c53a a1a7 a93a c3cc 353c
00000180: e331 e23c fb7e e33b f0f1 cdbb d895 633c
00000190: 65c9 8ebd 5d80 8ebc 1100 e3bd 1321 173c
000001a0: 9be6 c4bd a9df 393c 2231 82bd 9f12 cc3c
000001b0: b299 15bd 7668 5e3d 2b57 84bd 8027 39bd
000001c0: 7c21 81bd 00cf 7fbb b54b 3a3d a79f b93d
000001d0: 83c4 f7bc 51d2 0d3e 374b 333c 6904 8dbc
000001e0: b959 a3bd 6d6a f6bc 231a 193d 8a87 e9bb
000001f0: e302 863d 2cea 8d3d ae2b ccbb 96e3 283c
00000200: 7d1b c43d 4b7a 41bc 4bce 96bd fe9d 95bc
00000210: fb5f eb3d 54fc 4cbd 6382 d73d 1611 663d
00000220: c703 d1bc b496 363d 38b4 c93d 46cd fabd
00000230: b6be ffbb 216e 20bd 2e4b babc 3172 a43a
00000240: 0d57 923c 11a5 1e3d 4ebb 86bd 6a76 6e3d
00000250: 1be3 e33c 52e0 1ebd 0fcc 31bd 18f9 44bc
00000260: 8d03 8b3d 240e 44bd 5735 043d 67cc 5a3c
00000270: 30a6 9b3d 38c5 cc3d 6395 d93c a27f b1bc
00000280: 61ec 283d d656 9e3d e1b9 8cbd 533d 093d
00000290: bb01 bdbd 13e7 4dbd f70a 0b3d 9a1f 23bd
000002a0: 1d54 dcbc 22c0 083e 6000 873d accb 263d
000002b0: 67bb 7fbd f170 6d3d f38f d4bd 472d 24bd
000002c0: 9e2d ddbc f144 9fbd 54cf a5bd d33d 1c3d
000002d0: a515 a9bc 964e 65bd 4d0b 83bd 2d26 703b
000002e0: 331c 02bb 74a5 383d 82f1 97bd 831b 313c
000002f0: 98bd d43c 0ca8 c53c 5f08 ba39 4a8a d1bb
00000300: 19b1 653d 8be2 e9bc 982c af3d 7e92 6c3d
00000310: 8cab 8d3c 6721 3ebd 862f 743d e981 9bbc
00000320: 72e4 3fbd 9172 dfbb 6458 8abc a7dc 503d
00000330: 7bb1 2d3d 4136 0d3d 6028 26bc 38a8 ecbb
00000340: 759b fa3c a325 c3bc c130 5abd 1341 28bc
00000350: 31f4 96bd 1514 02bd a14b 61bd f92b 6a3d
00000360: 86d6 67bd 8a53 1e3d f2b0 233c 8fda dcbb
00000370: 73f1 113e 5800 e63c 74fb d43d de7b 663c
00000380: 8966 b1bd bb8f b4bc 0c30 52b8 d93e 5ebd
00000390: 2bd4 65bd 93ec f93d 13ca a53d 122b f33c
000003a0: 118b b8bd 8cb1 343c 32d9 6ebd 4424 82bd
000003b0: 3237 a83c 6fba 19bd 327a 81bc 423e 5b3d
000003c0: c536 10bd 9676 1dbc 0218 393d d894 67bd
000003d0: a9a5 4d3d 143a 743d 405c c5bc 20c6 d43c
000003e0: f337 a93d 9afe 623c 1605 743d bdf0 bc3d
000003f0: febe 7a3c 76a7 633d 4ed0 75bd 445e 2bbd
-0.0009438028 0.0109445695 0.013028316 -0.0029114124 0.004156446 -0.011253086 -0.008145236 -0.009452264
0.0028378442 0.0022769666 -0.0041396897 -0.027538832 0.009415092 -0.010988735 0.022467561 -0.0280023
0.052836344 -0.017312359 0.0035738577 -0.01389998 0.010043211 0.0013347056 -0.021163465 0.004428576
0.014940191 -0.018368442 0.026837518 0.072561145 -0.027415521 -0.075261414 -0.03114443 0.0038162894
-0.060115267 -0.0049571516 -0.022680802 0.010341847 -0.03579381 0.04019061 0.004111015 0.006141408
0.12064192 0.09401797 0.00320369 0.053836916 -0.15563118 -0.11860729 0.05596659 -0.08511598
-0.066214465 0.18026446 0.035398167 -0.019377008 -0.04905618 -0.059490588 0.050260786 0.008665531
-0.026785856 -0.07073098 0.034969743 0.059762683 0.015853366 -0.0402085 -0.15269299 0.025734823
-0.05922075 -0.018758593 0.023120556 -0.02455394 -0.041139398 0.041417252 -0.017205516 0.07251504
0.14655872 0.007401242 -0.00069088145 -0.063732564 0.10500879 0.03658238 -0.0064315577 -0.037885174
-0.16503774 -0.16739167 -0.033907056 -0.110221386 0.1677045 0.11110318 -0.059638325 0.07669064
0.02572911 -0.16491005 0.031536616 0.042425767 0.0049684388 0.0015097128 0.0012943634 0.011096182
0.027611678 0.0069426275 -0.0062849447 0.013890706 -0.06972007 -0.017395193 -0.11083997 0.009224194
-0.09614297 0.011344829 -0.063570276 0.024911223 -0.03652353 0.05429884 -0.064619385 -0.045203686
-0.06305215 -0.0039033294 0.045482356 0.090636544 -0.030245071 0.1384976 0.010943226 -0.017214017
-0.079760976 -0.030080045 0.03737844 -0.007126753 0.06543519 0.0692943 -0.006230793 0.010308167
0.095755555 -0.011808942 -0.07363566 -0.018263813 0.11492916 -0.050045326 0.10522916 0.05616864
-0.025514496 0.044577315 0.09848827 -0.12246184 -0.007804717 -0.039167527 -0.022740927 0.0012546239
0.017863775 0.03873164 -0.06578694 0.058218397 0.027818253 -0.038788147 -0.043407496 -0.012022279
0.06787787 -0.047865048 0.03227743 0.013354397 0.07600057 0.09998554 0.026560491 -0.021667305
0.041241053 0.077314064 -0.06871391 0.03350575 -0.09228846 -0.050269198 0.033946004 -0.03982506
-0.026895577 0.13354543 0.065918684 0.04072158 -0.06243458 0.057969037 -0.10379019 -0.040082242
-0.026999291 -0.077768214 -0.08096185 0.038144898 -0.020640204 -0.05598315 -0.0639864 0.0036643848
-0.0019853234 0.045079663 -0.07419111 0.010809782 0.025969312 0.024127983 0.00035482922 -0.006394659
0.056077097 -0.028550407 0.085534275 0.057756893 0.017293714 -0.046418574 0.059615634 -0.018982844
-0.04684872 -0.0068190773 -0.016887851 0.05099168 0.042405587 0.03447557 -0.010141462 -0.0072222017
0.030591706 -0.023821658 -0.05326915 -0.010269421 -0.073707946 -0.031757433 -0.055003766 0.05717084
-0.05660107 0.038653888 0.0099909175 -0.0067399214 0.14252262 0.028076336 0.103995234 0.014067618
-0.08662135 -0.022041192 -5.011265e-05 -0.054259155 -0.056110542 0.12203326 0.08095183 0.029683623
-0.090109 0.011028659 -0.058312602 -0.06354573 0.020534132 -0.037531313 -0.015805338 0.05352617
-0.035208482 -0.009610793 0.04518891 -0.056538433 0.050206814 0.0596257 -0.02409184 0.02597338
0.082626246 0.013854647 0.059575163 0.09225605 0.015304325 0.055579625 -0.060013108 -0.041837946

weight f4 [10, 6]
00000000: 0d57 96bb 9d78 c639 4aab 57bc 42bf b43b
00000010: 9633 30bc 6420 57bb bfa9 30bc 6b18 5ebd
00000020: 47ab ba3d 33b1 543e 09ad 1d3d d9ff f4bd
00000030: 01fc acbd df52 123d dba3 913d b534 0fbd
00000040: 26fe b43d 105a c5bd 6e7c 913c 88ae 4dbd
00000050: d230 f6bc 2a87 a8bb 8967 83bd c2d5 b23d
00000060: b947 cebd 9de7 723d a20d 163b bb66 7fbd
00000070: bd61 103c 8df0 09bc 5957 49bb 5a9e d9bb
00000080: c083 83bc d110 39be 9c12 ec3d dcf8 5abd
00000090: 8bfc d8bd 7f44 423e 2003 163e 6b16 f63d
000000a0: 0729 ed3d 0b18 26be 41fd 84bd acd9 3d3d
000000b0: ade4 403d 73f0 f7bd f27f 6e3d 01fb 5bbd
000000c0: c28c 67bd 7daf 283d 0336 403d 1daa 71bd
000000d0: b8fd ca3d f997 eabd 5dcf 873d 752d 04bd
000000e0: 39da 5dbd a6f0 723d 542d f4bc 3be8 e23c
-0.004588014 0.00037855367 -0.013163397 0.005515964 -0.010754487 -0.0032825703 -0.010782658 -0.054222506
0.091147 0.20770721 0.038495097 -0.119628616 -0.084465034 0.035723563 0.07111331 -0.034962375
0.088375375 -0.09636319 0.017759528 -0.050215274 -0.030052576 -0.005143066 -0.06416232 0.08732177
-0.10072274 0.059302915 0.002289631 -0.06235383 0.008812365 -0.008419168 -0.003072223 -0.0066411914
-0.016054034 -0.18072821 0.11526987 -0.053459987 -0.10595044 0.18971442 0.1464963 0.12015995
0.11580091 -0.16220109 -0.06493617 0.046350166 0.047093082 -0.12106409 0.058227487 -0.053706173
-0.05653072 0.041182984 0.04692651 -0.059000123 0.09911674 -0.11454768 0.06631348 -0.032269914
-0.05416319 0.05931153 -0.02980677 0.027698627

weight f4 [6, 4]
00000000: 6e1c e43d 27b3 8fbd b407 9abd 93ec 053e
00000010: 2e33 babd 8cb6 21bd f51c b03d 1a73 29bd
00000020: b35a 43bc 2511 f73d 22f2 d63d 08d2 b4bd
00000030: bf78 fa3c 9880 223d 3fe9 50bd 45b8 053d
00000040: b218 5dbe 7258 1d3e a8b0 4e3e 407d 33be
00000050: 7049 8f3d a4e2 733a 3516 8cbd 124b a63d
0.11138235 -0.070165925 -0.075210005 0.13078527 -0.09091793 -0.03948073 0.08599273 -0.041369535
-0.01192348 0.12063817 0.10495402 -0.08829123 0.030575154 0.039673418 -0.05100369 0.032646436
-0.21591452 0.1536577 0.20184577 -0.17528248 0.06996429 0.00093034864 -0.06840173 0.08119787

weight f4 [6, 4]
00000000: 3c67 c23b 1b4d 233c 0fa6 05bc ece0 a53b
00000010: 7c9f 053c 8449 2c3b 889a 143d 9e7c f0bb
00000020: 087e 533d efb0 e23c f098 823c 79fc 95bc
00000030: 81a2 3abc 1358 3b3d 9d0a 2b3d 8405 1fbd
00000040: ca1b 0c3d 66fe be3b 4065 1ebd f25a d6bc
00000050: 2345 d23c 2ec2 8a3b a353 02bd 2507 d4bc
0.0059327167 0.009967114 -0.008157267 0.005062213 0.0081557 0.0026288936 0.036280185 -0.0073390743
0.051633865 0.02767226 0.015942067 -0.018308865 -0.011391283 0.04573829 0.04175817 -0.03882362
0.03420619 0.0058286665 -0.03867078 -0.026166413 0.025667733 0.004234574 -0.031818043 -0.025882313

weight f4 [9, 5]
00000000: 6294 a7bb 8cac 30bc b3e1 873c 1761 61bb
00000010: 340b ca3b a756 6b3a 1d02 3f3d 7cbc 09bd
00000020: 1f51 6dbb b073 8e3c f33f 47bd d3b1 1b3c
00000030: d818 0f3d c695 b2bd 47a9 83bd 8738 8a3c
00000040: c0ce 85bb 5fcd 96bc 001d b93d 170b 413d
00000050: 71c4 27bc 18c0 a6bc 60c1 0c3b 1831 093d
00000060: c0b5 8abc 19e3 99bb 727f 9a3c e54a 93bc
00000070: 6669 3abd 61ab 433b c428 783c 05b2 31bb
00000080: 1d09 18bc a09c 073d 7869 b53c 1a62 56bd
00000090: e6e4 e33c 0d95 443c 3803 fabc 9947 e3bc
000000a0: 6571 1abd ebe2 3c3c f739 38bd ac77 ffbc
000000b0: ae64 9dba
-0.005114124 -0.010783326 0.016587114 -0.0034390145 0.0061658863 0.0008977451 0.046632875 -0.03362702
-0.0036211682 0.017389148 -0.04864497 0.009502846 0.034935802 -0.08719973 -0.064287715 0.016872657
-0.0040834844 -0.018408475 0.090387344 0.047129717 -0.010239706 -0.02035527 0.0021477565 0.033494085
-0.016932368 -0.0046962616 0.018859599 -0.017980048 -0.045510672 0.0029856788 0.015146438 -0.0027114165
-0.0092795165 0.033108354 0.022145018 -0.05233965 0.027819108 0.011998427 -0.030519113 -0.027744101
-0.037705798 0.011528711 -0.044977155 -0.031184994 -0.0012008154

weight f4 [7, 5]
00000000: d370 aabb 1c8d 8038 0399 b4bb a593 89bc
00000010: 0a4b 593c b702 413e 87c1 0fbe 69d9 9cb9
00000020: d5eb d33d 7806 a63d 532b 70bd a125 d33b
00000030: 9377 b83b b12f c0bc 5250 17bd 3816 9bbc
00000040: 54d7 7dbd 9a9b 243d fec5 9c3c c3a0 79bb
00000050: 7bf0 793c f739 1c3c 2153 8eb8 5a80 c23c
00000060: 7656 c0bc a3be 34bd 6616 703d 1d09 b1bc
00000070: c8f5 2ebd f44e 7f3c 9219 02be 156b ce3c
00000080: 75cb fe3c 9112 c5bd 8caa f6bc
-0.005201438 6.129799e-05 -0.0055114045 -0.016794035 0.01326252 0.18848692 -0.14038669 -0.00029916622
0.10347716 0.081067026 -0.058635067 0.0064436947 0.0056294887 -0.023460241 -0.036941834 -0.018931493
-0.06197293 0.040187456 0.019137379 -0.0038090206 0.015255089 0.009535304 -6.7865716e-05 0.023742843
-0.023478728 -0.044127118 0.05861511 -0.02161079 -0.042714864 0.015582789 -0.12705067 0.025197545
0.031102875 -0.09622682 -0.03011062

weight f4 [5, 4]
00000000: c246 07be 89c2 263e 741c fdbd a1f1 833d
00000010: a11b 86bd ba2f 723c 3738 54bb 1e9d 5d3d
00000020: f10b 11be b36f 3f3e cb96 11be f54b 053e
00000030: 08eb bfbc c62f 453d 94c5 f63a 46d9 1d3a
00000040: 250b 793e 4735 51be ac39 d73d b386 3fbe
-0.13210586 0.16285147 -0.12358943 0.064425714 -0.065482385 0.014781887 -0.003238214 0.054104917
-0.14164712 0.18694954 -0.14217679 0.13017257 -0.023427501 0.048141263 0.0018827193 0.0006021451
0.24320658 -0.2043048 0.10509047 -0.18703727

weight f4 [13, 7]
00000000: 74cb 1bbd 0d59 e2bb 2f64 47bd 65a8 30bd
00000010: f713 d7bc 31ab 353d dc4e 45bd f2c6 733d
00000020: 984c 213d 7317 d73c 5cd2 023d c454 f7bb
00000030: c889 483d b3ca 853c 77a6 27bd fd56 04bd
00000040: 0830 08be 55e5 19bd a48a d6bd f1e2 553c
00000050: 1743 a6bd ebf6 90bd 5c54 ef3d 080d ccbd
00000060: 4ce7 efbd 3fff c33d 7d14 a2bd 550e 6b3d
00000070: 1cd9 39bd 9bbd 453c ae22 33bc 0c15 06bd
00000080: dfdd 313c d424 023d 7e4d 3cbd 8cc3 ebbc
00000090: a050 95bb 2d92 fd3d 91ed 883b f90e b7bc
000000a0: 2c6d 47bb 6eed ce3c fe58 133d ff42 20bb
000000b0: eb04 60bd 3ab9 31bd 2790 023d 4189 a83b
000000c0: 1fc2 b13c 7831 083d a0c0 f9bc ed87 89bc
000000d0: 9ec8 2f3d 3557 f73d 4ac0 0c3d f363 073d
000000e0: 5505 fcbb 9099 75bd 35b6 853b 37af e53d
000000f0: 1c2a 06bd c642 843d d1bb 1dbd 2677 31bc
00000100: 1194 e6bc f8ec df3c 0f7c a53d d594 523d
00000110: d026 093d 8afb f9ba c8ba d83c ee22 293d
00000120: 0e16 d23c 65b7 d3bc 2a8e 963a 3a82 b53a
00000130: 0deb 393d 617c 39bc 3cf2 0e3d 71d2 9ebd
00000140: 1814 f1bd 7cf9 4dbd a39b 94bd f235 a6bd
00000150: cd36 ea3d 4592 453c ef69 003e 5f43 f63d
00000160: 9efa 12bd 8df4 733d bc02 d73d
-0.038035825 -0.0069075883 -0.048679527 -0.043129344 -0.026254637 0.044352714 -0.04817091 0.0595159
0.039379686 0.026256299 0.031938896 -0.0075479466 0.048959523 0.016332006 -0.040930238 -0.03230952
-0.13299572 -0.037572224 -0.10475662 0.013054595 -0.08118265 -0.07078346 0.11686012 -0.09963423
-0.11714038 0.09570169 -0.07914064 0.057386715 -0.045373067 0.012069131 -0.010933561 -0.032734916
0.010856121 0.031773403 -0.04597234 -0.028779767 -0.0045567304 0.123813964 0.0041787107 -0.022346007
-0.0030430062 0.0252597 0.03597354 -0.0024453995 -0.05469219 -0.043389536 0.031875756 0.005143315
0.02169901 0.033250302 -0.030487359 -0.016788447 0.042915933 0.1207718 0.03436307 0.033054303
-0.0076910653 -0.0599609 0.0040805587 0.1121506 -0.032755002 0.064580485 -0.038509194 -0.01083163
-0.028146775 0.027334675 0.08080303 0.05141147 0.03348428 -0.0019072157 0.026456252 0.041293077
0.025645282 -0.025844285 0.001148646 0.0013848015 0.045390178 -0.011321158 0.03489898 -0.07754982
-0.11771411 -0.050286755 -0.07256248 -0.08115758 0.11436234 0.012058799 0.1254041 0.12024569
-0.03588354 0.059559394 0.104985684

weight f4 [15, 7]
00000000: 5cc8 3fbd 7ff7 2fbe c5d8 813d 919e 99bd
00000010: 56d8 bf3d 57a2 ca3d 1117 233e 9bcb 24bd
00000020: e8c6 17bd 4b6b 76bc 4b7a 67bd a1b0 a53c
00000030: 4248 fd3b f77f 1f3d 4935 d23c d077 9b3c
00000040: 31d9 9d39 49bf 973c b327 b83a 4c0a f1bb
00000050: 552f 24bd d43f f03b 2d75 8c3d 2c96 47bd
00000060: b1a7 c73d 7832 a6bc 95bb cfbc b5ad 02bd
00000070: 3b00 c93d eb86 0c3e f517 28bd 2077 ff3d
00000080: bd9f 1c3d c5e1 9abd 86d0 11bd 06ef 2abd
00000090: c23e 1c3c c12e 06ba 8a7e 36bd 7733 df3c
000000a0: 568a 5bbd 2f13 8abb e716 533d 0c70 afbc
000000b0: 465f 243a 36ef 4c3d 5a17 7dbc d5be 803d
000000c0: c48e 53bc 40dc c13d bb7d 2f3e 3c69 8fbd
000000d0: 02cb b53d 03d3 a2bc 9fa6 18be d7fd a8bd
000000e0: 5930 50bd 0c4c 923c ece0 79bc d3d2 dd3b
000000f0: 2f6f f73c b9df 1cbb 689e 45bd 611e 873d
00000100: 51bb 133d 7cf1 623d 29db 343d 31ba b9bd
00000110: fccc a13d ac0a b4bd ad2f e7bb a96c b6bd
00000120: 1b85 de3c 8cf1 35bd cc96 823d 2891 483d
00000130: 53d9 86bc 8c3b 83bd 68d1 ffbd 54c3 ff3c
00000140: a198 87bd 2844 b83d 23af 983d d867 5a3d
00000150: 542f 9bba 4ea0 c4bb 7b34 e4bc b5d7 7a3a
00000160: d11e 2a3b 0dac 6bbc 539e 8b3d 9cfd 203d
00000170: b8a3 553d 8565 26bd b697 193b a3f6 59bb
00000180: 915f 16bc 5461 1838 a150 983c 3bfc 42bd
00000190: af7d 393d 872d cdbc 1d3e 733d e5fc 213e
000001a0: 3ba2 3d3e
-0.046821937 -0.17184256 0.06340174 -0.07500947 0.09367435 0.09894245 0.15926768 -0.040233236
-0.037054926 -0.015040229 -0.056513112 0.020225825 0.007729561 0.038940396 0.025660174 0.01897803
0.00030107194 0.018523829 0.0014049917 -0.007355964 -0.0400842 0.0073318277 0.06858287 -0.0487272
0.097487815 -0.020287737 -0.025358 -0.03190394 0.09814497 0.13723342 -0.041038472 0.12473893
0.038238276 -0.07562593 -0.035599254 -0.041731857 0.009536447 -0.0005118661 -0.04455427 0.02724622
-0.053598724 -0.0042137126 0.051535513 -0.021415733 0.00062703004 0.050032817 -0.015447462 0.06286398
-0.012912456 0.094658375 0.17137806 -0.07002494 0.08876611 -0.019876009 -0.14907311 -0.08251541
-0.050827358 0.017858528 -0.015251379 0.006769517 0.030204384 -0.002393706 -0.04824677 0.06597591
0.03606731 0.05540608 0.04415432 -0.09068716 0.07900426 -0.08791098 -0.007055244 -0.08907444
0.027163079 -0.04441981 0.063764185 0.048966557 -0.01646105 -0.06407842 -0.12491113 0.03122107
-0.066209085 0.08997375 0.0745528 0.05332169 -0.0011839666 -0.006000555 -0.027857056 0.0009568886
0.002595831 -0.014384282 0.06817307 0.03930436 0.052158087 -0.04062416 0.0023436374 -0.003325858
-0.009178058 3.6330268e-05 0.018593134 -0.047603827 0.045285877 -0.025046123 0.059385408 0.15819128
0.18518917

weight f4 [5, 4]
00000000: 7575 3c3c e426 91bb bf78 ce3b 8e51 71bc
00000010: f3bb 20bc 3d47 dcbc 581e 0dbd 22e0 36bd
00000020: 6efd a93c e8d4 64bd 7541 56bc 1e27 b43b
00000030: f135 4d3d 7490 22bd 59ed b9bb be0e b9bc
00000040: 2c23 9bbc 97cf a53d b6d3 26bb 399b 35bc
0.011502613 -0.004429685 0.006301015 -0.014728917 -0.009810436 -0.026889438 -0.034452766 -0.044647343
0.020750728 -0.055867106 -0.01307713 0.005497827 0.05010027 -0.039688542 -0.005674046 -0.022590037
-0.01893767 0.08096235 -0.002545578 -0.011084371

weight f4 [5, 4]
00000000: 9dde 47bc 4157 f2bb 2ba5 d0b8 6359 953b
00000010: 1a82 a93c 46ad 8dbb 71a4 3cbc 0a64 ccbc
00000020: a286 a6bc 7762 85bc e854 b6bc f0d7 acbb
00000030: 28ac 92bc 4b75 8bbc 5f74 79bc 04cb 1b3d
00000040: fd76 c2bc 073d 9dbc 838f 0abc 020c b63c
-0.012199071 -0.0073956554 -9.948978e-05 0.004557775 0.02069192 -0.0043236343 -0.011513815 -0.024950046
-0.02032787 -0.016282303 -0.022257283 -0.005274765 -0.017904356 -0.017023703 -0.015225499 0.038035408
-0.023738379 -0.01919414 -0.008457067 0.022222523

weight f4 [5, 4]
00000000: e785 cdbb b208 c5bc 2bdd 853c 932c a73c
00000010: b2b0 a53c bb0c 1fbd a474 c43c d0bc 28bd
00000020: 8945 e5bc 6dd5 8fbd 1ff7 37bb ba66 1a3d
00000030: 6ac1 47bd b8af ea3c 48a4 9c3d 8c88 553d
00000040: 912b cb3b 9da8 9dbc f669 afbc 59fd 743b
-0.006272066 -0.024051998 0.016340813 0.020406997 0.020225856 -0.0388305 0.0239814 -0.04119569
-0.027987259 -0.070231296 -0.002807088 0.037695624 -0.04876844 0.028648242 0.07648522 0.052132174
0.006200262 -0.01924544 -0.02141283 0.0037382452

weight f4 [7, 5]
00000000: 7da0 313c 9bfb 39bb e228 8b3b b104 05bc
00000010: 19f0 65bc 4d6b 3fbd 75ef 993c 11c8 a03c
00000020: ca1a de3c e3b9 023d 6edd 5bbd 3afa ac3c
00000030: 5c3b 5a3d 71a9 2fbe 3839 2eb9 f51d 613a
00000040: 0294 143c b632 ac3b cda6 723c d6ef ecbb
00000050: 0219 b63c 0b91 32bd b1e1 f4bc 16c2 383d
00000060: a200 9d3b db3b 073c 3968 fabb 8858 05bd
00000070: cc88 01bb bc68 95bc a202 913b 3656 543d
00000080: 0e4b c0bb 89ff 663b f995 8fbb
0.010841486 -0.0028378728 0.004246817 -0.008118794 -0.0140342945 -0.04673319 0.01879094 0.01962665
0.027112383 0.031915557 -0.05367797 0.021115411 0.053279266 -0.1715448 -0.00016615249 0.0008587533
0.009068491 0.0052550687 0.014810276 -0.007230739 0.022228722 -0.043595355 -0.029892774 0.04510697
0.004791335 0.008254017 -0.007641819 -0.032555133 -0.0019765375 -0.018238418 0.0044253627 0.05184003
-0.005868322 0.0035247526 -0.004381892

weight f4 [5, 4]
00000000: c4c2 7cbc 5bf9 143b 6624 a43a 7544 2d3c
00000010: 00b1 e3bd e98c aebc 062f 45bc 9f45 31bd
00000020: 1a1f e3bc a09d d23b efd1 413d 1f17 0ebc
00000030: dc0b 523d 1a0b 65bd c53e 3cbd 2832 543d
00000040: 2104 03bd 6ddd 05bd 8ee6 18bd cb1e bbbc
-0.015427295 0.0022731635 0.0012523055 0.010575403 -0.111177444 -0.021307426 -0.012035137 -0.043279286
-0.027724791 0.006427482 0.04731935 -0.008672505 0.05128084 -0.05591879 -0.0459583 0.051805645
-0.03198636 -0.03268187 -0.03732925 -0.022841832

weight f4 [5, 4]
00000000: fe1f 4e3b 551c a239 f23e 26bb 4d37 83bc
00000010: d304 b83d 1665 86bc c6ac 33ba 7157 92bd
00000020: 0106 c7bb 9a68 4d3c 02ce e4bd 26d0 6dbd
00000030: b463 753d b730 06bd 1c57 bcbc d11e 95bd
00000040: 6e47 b53c 8b9c 033d d3e9 903d e263 2fbd
0.0031452174 0.00030920157 -0.0025367108 -0.01601758 0.08985295 -0.016405623 -0.00068540534 -0.071455844
-0.006073714 0.012537146 -0.11172105 -0.058059834 0.059909537 -0.0327613 -0.022990756 -0.072812684
0.022128787 0.032131713 0.070758484 -0.042819865

weight f4 [5, 4]
00000000: dcd4 cc3b 43dd a2b9 45e9 ce3b fb19 3839
00000010: a0d8 a6bb 364f 12bd 78ab b93b 3c43 643d
00000020: e752 2fbd d0ce 00be 7966 1fbe a241 d73d
00000030: 89aa d73c 378d 383d 9393 103d 0bba 42bd
00000040: 37c1 543d 35a9 533d 90e7 e23d b0f8 9fbd
0.0062509608 -0.000310639 0.006314429 0.00017557286 -0.0050917417 -0.035720073 0.0056661926 0.055728182
-0.04280367 -0.12578893 -0.15566434 0.10510565 0.026326435 0.045056548 0.035296988 -0.047540706
0.051942077 0.05167504 0.11079323 -0.07811105

weight f4 [7, 5]
00000000: b000 e53b 7ee5 513c 80eb 28bc 49e6 70ba
00000010: d709 cfbb 8a99 643b 0d21 00be ecf4 6b3d
00000020: fc69 c43c ef34 00bd 749e fd3c 4968 2cbc
00000030: 0cd6 55bc 2f31 443d d111 273b cb58 7f3a
00000040: 40be 10bc 9330 063d eac8 d5bc 8958 0c3c
00000050: b80f 14bc 92e0 853c 7906 13bb a7cc 203d
00000060: 00bf 83bc 2570 453d 6961 973d 0810 f9bc
00000070: bf40 39bd 6a6f 793c 135f 2ebd bf97 7a3b
00000080: df7a 80bc 7255 b0b9 a25e 2d3c
0.0069886073 0.012811063 -0.010310054 -0.00091895886 -0.0063183117 0.0034881555 -0.12512608 0.057606623
0.023976319 -0.03130048 0.030959345 -0.01052291 -0.013051521 0.047898468 0.0025492797 0.0009740709
-0.008834422 0.032761168 -0.02609678 0.00856603 -0.009036951 0.016342435 -0.0022434278 0.03925767
-0.016082287 0.048202652 0.073916264 -0.030403152 -0.045227762 0.015224317 -0.04257114 0.003823742
-0.01568359 -0.00033632998 0.010581644

weight f4 [7, 5]
00000000: 1b47 1ebc 5d44 27bc 0d19 d13b 0e9f 91bc
00000010: c4f0 90bc 858c b6bc 04b0 3c3d cd24 9dbd
00000020: 441c f9bc 7c13 873d e430 91bb d8b3 35ba
00000030: 0d20 17bd 981c cc3c 36d9 96bd 4112 f03c
00000040: e6c8 9dbd c30b 7d3d 3914 e33c 8338 4b3d
00000050: 1ebf d4bd 95e8 833d 33de 0bbd 93ff a3bc
00000060: c438 6e3c 7a53 7e3d b800 a4bd 1e18 03bd
00000070: b389 ce3d e4cc 6fbd 0704 8f3c bf35 8ebc
00000080: 4468 893b 7e28 7f3d acbd 6e3b
-0.009660508 -0.01020917 0.00638116 -0.017776038 -0.017692931 -0.022283802 0.0460663 -0.07673035
-0.030408986 0.06595513 -0.004430877 -0.0006931401 -0.0368958 0.024915978 -0.073656484 0.02930558
-0.07704334 0.061778795 0.027719604 0.04961444 -0.10388015 0.06440846 -0.034147453 -0.020019328
0.014539901 0.06209133 -0.080079496 -0.03200542 0.10084858 -0.05854501 0.017457975 -0.017359613
0.0041933376 0.062294476 0.0036428971

weight f4 [6, 4]
00000000: 3d43 ebbc c8b5 ca3b e2de 8b3c 80af 4dbc
00000010: 2802 f3b9 ba8d b2bd 7fb3 4c3d aca5 153d
00000020: 0eb7 91bd b48e 2b3d acf3 be3c 23d0 06bd
00000030: a444 c9bb feb8 cf3b 43a6 85bd ef07 a53c
00000040: a8d3 40bd cd52 37bd 610a 813b 2422 1f3c
00000050: a56c f63c d5d6 543c ac68 b3bc e7a0 0e39
-0.028718585 0.006186221 0.017074052 -0.0125540495 -0.00046350178 -0.087184384 0.04997587 0.03653495
-0.07114993 0.04188414 0.023309551 -0.03291334 -0.006142216 0.0063391915 -0.065258525 0.020145385
-0.04707685 -0.0447567 0.003938005 0.00971273 0.030081103 0.012990673 -0.021900497 0.00013602116

weight f4 [5, 4]
00000000: 0eba 98bc f891 7abd 0c66 e23b 244e c23b
00000010: 9437 b93c 5d44 53bd 1817 4d3b 2f2e efb9
00000020: fc79 ce3d 9c7b a53c 2ab8 f5bc 6e96 063b
00000030: 148d 5bbd 1c97 85bc a2f5 283d 05c4 b0bc
00000040: f1a4 f03d de87 5dbc 2b39 483d d5b3 a53d
-0.018643405 -0.061174363 0.0069091376 0.0059297252 0.02260951 -0.05157887 0.0031294283 -0.00045620042
0.100818604 0.020200543 -0.029995043 0.002053644 -0.05360134 -0.016307406 0.04124988 -0.021577844
0.1175021 -0.013521163 0.048882645 0.08090941

weight f4 [5, 4]
00000000: 506a acbc e40a 2abc 202d f63c a837 b1bd
00000010: 9744 1c3d 753b 263c 5984 20bd 1a82 c73c
00000020: b06a 6d3d f553 bd3a b716 56bd fe02 283d
00000030: 555e 14bd cb1d 9a3d ed1e 79bc d81d 0ebc
00000040: 038e e53b 4078 9d3d f60a 943c b4fc 55bd
-0.021046788 -0.010378573 0.030050814 -0.08653194 0.03815135 0.010146012 -0.039188717 0.02435403
0.057963073 0.0014444577 -0.052267756 0.04101848 -0.036222775 0.07525214 -0.015205127 -0.0086741075
0.0070054545 0.076889515 0.018071633 -0.05224295

weight f4 [5, 4]
00000000: 2e47 1fbc ebaf 65ba be7a 2a3c 7995 5abc
00000010: 15b0 1abd e18f ea3d b61b cd3d 69e6 d3bd
00000020: 8eff e93c eb08 9e3a ee65 31bd 251e b63c
00000030: 4ac7 f33c 31f6 88bd 142b aebd a085 aa3d
00000040: 5215 623b 5e9b 19bd 15e7 8dbc 9706 ab39
-0.00972156 -0.00087618706 0.010405241 -0.013341301 -0.03776558 0.11453224 0.10015051 -0.103466816
0.02856424 0.0012057101 -0.0433101 0.02223117 0.029758114 -0.06687582 -0.0850431 0.08326268
0.0034497571 -0.037501685 -0.017322103 0.0003262057

weight f4 [7, 5]
00000000: bc5e 223e fa22 0dbe 3fbe b5bd 24db 173e
00000010: c9af fd3d cf5a c03d 6190 943a 986a c8bd
00000020: 2c27 e13d 212d 4c3d f259 883d 75a2 46bc
00000030: aa36 ddbc b846 7e3d c5f0 c83d 72ee 293d
00000040: 422a 98bb 31e4 8dbd 8b82 173e e486 bc3d
00000050: 9e09 693c dc46 e9bc 585c c43b 1841 2b3d
00000060: 6ad0 eb3b 371c 823d c250 cbbd a943 393c
00000070: 1379 0b3d e3e1 103d 4ec8 e3bd 36ca 693d
00000080: 98cc 283d c83f 16bc 64f7 b9bc
0.15856451 -0.13782874 -0.08874177 0.1482969 0.12387044 0.0939232 0.0011334532 -0.09785956
0.109937996 0.049847726 0.06657781 -0.012123694 -0.027003605 0.06207916 0.09811548 0.041487165
-0.0046437094 -0.0692829 0.14795892 0.09205416 0.014223484 -0.028476171 0.0059924535 0.041810125
0.0071964758 0.06353038 -0.09927513 0.011307635 0.034051012 0.035371672 -0.111221895 0.05707761
0.04121074 -0.00917048 -0.022700973

weight f4 [7, 5]
00000000: d1c3 a0bb a8f9 80bc 859e 7fba e04d 28bb
00000010: 6c4c 2dba f16f 14bc 5917 cb3c 0b34 1bbd
00000020: 1500 94bc 1c53 04bc bac6 13bd ce24 cb3c
00000030: f691 913d 138d d03d 6367 c3bd da2b 5b3a
00000040: 24a6 6e3d 6976 06bc cc27 85bd 6167 95bc
00000050: 3592 353d 5b59 0bbe 34b3 afbd df2a 15bd
00000060: befe 063e 6fc7 813c b7ab 9bbd f09c a8ba
00000070: 34c8 84bd 8d64 013d 1307 cebb 1b63 9c3d
00000080: 14cc 303d cda3 e93c 8cd9 45bd
-0.0049061556 -0.015744045 -0.0009751099 -0.0025681183 -0.0006610814 -0.009059892 0.024791406 -0.03789143
-0.018066445 -0.008076455 -0.036078192 0.024797823 0.07107918 0.10183158 -0.09541204 0.00083607214
0.058263913 -0.008206942 -0.06501731 -0.018237771 0.044328887 -0.13608305 -0.08579102 -0.03641784
0.13183114 0.015842168 -0.076011114 -0.0012864154 -0.06483498 0.031590033 -0.0062874644 0.0763609
0.043163374 0.02852049 -0.048303172

weight f4 [4, 3]
00000000: 04ae 79bc 6109 a33b 5f3b 90bc f4ec b7bb
00000010: e0e7 363d cf50 6b3b 7c9e efbc c683 f73b
00000020: 828d 0eb9 c767 de3c c75d 5b3d 92fa ad3c
-0.015239242 0.0049754833 -0.017606435 -0.005612964 0.044654727 0.003590632 -0.029250376 0.0075535504
-0.00013594891 0.027149094 0.05355623 0.021237645

weight f4 [6, 4]
00000000: 9a12 153c b149 1f3b a5ac 58bb d6c8 1f3c
00000010: 637b 24bd 50ca 1ebd d79a b83d 7b97 993d
00000020: 34d3 903b e7b0 a3bd a7d5 b23d 38a0 b038
00000030: b350 2f3c 0dd2 503d 36ac 05bd 8795 6d3d
00000040: 5fab d9bb 4fa8 883c 089a 93bc 1ba3 173c
00000050: 950f 1abc aebd 05bc c9f2 16bc c3d1 25bd
0.009098673 0.0024305398 -0.0033061889 0.009752473 -0.040156733 -0.03876716 0.09013908 0.07499596
0.0044197086 -0.07992726 0.08732157 8.422177e-05 0.010700393 0.05098157 -0.032634936 0.05800393
-0.0066427435 0.016681818 -0.018017784 0.009255196 -0.009403129 -0.008162899 -0.009213158 -0.040483247

weight f4 [6, 4]
00000000: 3a98 173c 9bb0 3abc f82d 89bb b229 8bbc
00000010: 6d57 333c 41d8 84bd 8355 1b3d 6e5d 5a3c
00000020: 839c 76bd d522 243e 0a3c 6bbd 76a2 56bd
00000030: 012d 453d 1f94 463d 00f8 1c3d 7124 0b3d
00000040: 451c 9a3d 0425 dcbd c4cb 1a3d 9aca c83c
00000050: 4aea e53c 586c dc3c 07c3 b7bb 4b6b 1d3a
0.009252602 -0.011394645 -0.004186388 -0.016987655 0.010946137 -0.0648656 0.037923347 0.013327939
-0.060207855 0.16028912 -0.057430305 -0.05240103 0.048138622 0.048481103 0.03832245 0.0339703
0.07524923 -0.10749248 0.037791982 0.02451067 0.02806582 0.026907131 -0.005607966 0.00060050626

weight f4 [4, 3]
00000000: bd9b 2abc e25b 923c 957b 6bbc 68ab 1bbd
00000010: 1243 4d3c 8bce c93c 825e 21bd a6d0 a83d
00000020: 9857 9cbd e774 9c3c 68ef f8ba 5191 833d
-0.010413107 0.017866079 -0.014372726 -0.038005263 0.012528198 0.02463462 -0.03939677 0.082429215
-0.07633895 0.019098712 -0.0018992247 0.06424201

weight f4 [10, 6]
00000000: 374f 4abb c566 77bb e901 a0bb e522 8dbc
00000010: ad9f 823b 0e13 06bc 9a03 4c3e 9335 9d3d
00000020: e5c3 a3bd a041 6abd 040a 4abd 72fa 0e3e
00000030: 3b51 12be 8889 7abd f679 593d 6bc7 063d
00000040: b392 153b 84e8 e63b c192 92bd 9971 67bd
00000050: 414e 7a3c 9253 ee3c ae40 443d 2ebd fbbc
00000060: 7aca dabd bbc0 9cbd bc8d debc 38f4 ed3c
00000070: 0d18 033d 3ba2 bdbd cac2 023d 656f 7d3d
00000080: 7c1d e6bc a8b0 0eb9 1946 dbbc 431d 183d
00000090: 8f19 e23c 762c 3d3d 46d2 dfbc 766c 51bb
000000a0: 740f 12bd 62b3 2e3d a2ee 99bd 5950 97bd
000000b0: c39b 12bb 9fb9 c83c 2b34 913c 9f27 37bd
000000c0: 7c85 dbbd 2efd 7abc 20ab d3bc b27e 483d
000000d0: 21e1 8d3b 5e91 dfbd 122b 0f3d 0355 f13d
000000e0: 01c1 81bd ecac 0f3c 7e5b 54bd df42 283d
-0.003086997 -0.0037750464 -0.00488304 -0.017228553 0.00398632 -0.008183254 0.19923249 0.07676234
-0.07996348 -0.05719149 -0.049325958 0.13962725 -0.142888 -0.061166316 0.053094827 0.032905024
0.0022823035 0.007046761 -0.07156897 -0.05650482 0.015277446 0.029092584 0.047913246 -0.030729856
-0.106831506 -0.07653948 -0.027167194 0.029047117 0.03200536 -0.09259459 0.031924047 0.061873812
-0.028090231 -0.00013607985 -0.026766824 0.03713728 0.027600078 0.04618498 -0.027321946 -0.0031955517
-0.03565927 0.04265154 -0.07516219 -0.07388372 -0.0022370673 0.024502574 0.017725071 -0.04471552
-0.107188195 -0.015319152 -0.025838435 0.04894895 0.004329816 -0.109163985 0.034953184 0.11783793
-0.06335641 0.008769255 -0.051845066 0.0410794

weight f4 [7, 5]
00000000: 4350 44ba ad5c 203c 1c4d 6fbc b15d 4dba
00000010: b802 b4b9 f1fc de3d fc2f 85bd 8e52 653d
00000020: 273c 61bd 83d9 2b3e 3305 f3bc ab31 753a
00000030: 4681 0fbd b74b 093c 7267 943c 174c b13c
00000040: b087 8dbb 260b 79bd 9367 e4bc 2075 713c
00000050: d452 8a3d 5cfd 8d3d ae94 073e b04f fd3d
00000060: 4ecb 993c c69d b4bd 480c 07bd b100 7e3c
00000070: d681 4e3a 2b71 66bd 657c a83c b2bd 9a3c
00000080: 895e efbc 7931 53bd 4d36 17bd
-0.00074887666 0.009787721 -0.014605787 -0.00078340905 -0.000343343 0.108880885 -0.06503293 0.055986933
-0.054989006 0.16782193 -0.029665565 0.00093534094 -0.035035394 0.008379868 0.018115733 0.021642728
-0.0043191537 -0.060801648 -0.02788142 0.014737397 0.067540795 0.0693309 0.1324031 0.12368715
0.018773701 -0.088191554 -0.032970697 0.0155030945 0.00078776234 -0.05626027 0.020567128 0.018889282
-0.029219883 -0.051560853 -0.03691702

weight f4 [50]
00000000: d32d 863f c199 8a3f f2d0 7e3f cfec 813f
00000010: 0170 7c3f 5a00 713f 9d8d 7c3f 6563 8a3f
00000020: 3ffd 823f 4a59 7e3f e749 7f3f b4cd 763f
00000030: 6c0e 733f 19f2 763f 612a 793f 6bb0 783f
00000040: bf25 803f 0ee4 763f b81b 803f fc01 763f
00000050: b749 783f 3fb4 793f 85ac 7b3f c146 7e3f
00000060: bca3 823f 94a5 823f 8c1b 743f 2745 813f
00000070: e2f6 7f3f f148 7d3f d631 7a3f 3730 7d3f
00000080: a936 813f c258 813f f1ed 833f 8310 823f
00000090: da87 723f cbd9 803f 5a56 8b3f 4dc1 823f
000000a0: 802e 7b3f ddae 7b3f dc3c 7e3f 58e9 813f
000000b0: 8076 793f d0a7 7d3f d6ed 7b3f a053 7e3f
000000c0: b904 873f 800e 803f
1.0482734 1.0828172 0.99537575 1.0150393 0.98608404 0.9414116 0.98653585 1.0811583
1.0233535 0.99354994 0.9972214 0.9640763 0.9494388 0.9646316 0.9733029 0.9714419
1.0011519 0.96441734 1.0008459 0.9609678 0.9698748 0.9754066 0.9831012 0.9932671
1.0206218 1.020678 0.95354533 1.0099229 0.9998609 0.98939425 0.97732294 0.98901695
1.0094806 1.0105212 1.0306989 1.0161289 0.94738543 1.0066465 1.0885727 1.0215241
0.9811783 0.98313695 0.99311614 1.0149336 0.9744644 0.99084187 0.98409784 0.9934635
1.0548316 1.0004425

bias f4 [50]
00000000: f846 2c3c 7b2e c73c cfdb d33c 6eb1 02bd
00000010: 6740 c83b 105c 7b3c 7712 d9ba 6680 f5bc
00000020: 7c42 d2bb 62e6 333c 1ff3 7cbc 3030 0cbd
00000030: e002 c4bc 152f 6dbd 5f89 953c 9aca d4bb
00000040: 0627 daba aa46 41b9 74b4 b73c 40a7 bdbb
00000050: 002d ec3c 6257 9bbc 2933 80bc 23cf 2ebc
00000060: 76ef 153c 9ada 72bc 54d4 fe38 7256 00bc
00000070: a04f 953c 4775 9a3c 881c 7b3b 11d0 083c
00000080: 75ad 56bd c395 463d afbe 823b 854c 12bd
00000090: 01ad e0bb 0172 f63c eb18 f43c 1da8 eabb
000000a0: a92e d9bc fd27 a43c 7484 84bb a563 e8bb
000000b0: 954c 63bc f893 5ebc 05f3 5fbc 034b 88bc
000000c0: 23e8 babc 02a8 69bd
0.010514967 0.024314156 0.025861649 -0.03190749 0.006111193 0.015341774 -0.0016561289 -0.029968452
-0.006416617 0.0109802205 -0.015438824 -0.034225643 -0.023927152 -0.05790623 0.01825398 -0.0064938786
-0.001664371 -0.00018432239 0.022424914 -0.00578776 0.028830051 -0.018962566 -0.015649395 -0.010669502
0.00915133 -0.0148226265 0.00012151213 -0.00783311 0.018226445 0.01885475 0.0038316566 0.008350388
-0.052411515 0.048482668 0.0039900164 -0.035717506 -0.006856561 0.030083658 0.029797038 -0.007161154
-0.026511507 0.0200386 -0.00404411 -0.0070919567 -0.013873239 -0.013585083 -0.01366878 -0.01663733
-0.02281577 -0.05704499

running_mean f4 [50]
00000000: 7f01 07bc 47ca 81bb 8242 e23c 3ab5 023a
00000010: 6507 cabb 21bc 0fbc f6b1 0d39 a355 0d3a
00000020: b545 6aba 98fd 273c ec6b a73c 0d1f 29bc
00000030: c650 57bd 7e6a 133d ecbc c03b 9521 2bbc
00000040: 4e42 b03c 52cd 12bc b9d6 c43c 4c80 2e3c
00000050: 6927 c6bc f38e 92bc f0d8 b83b faae 4bbc
00000060: 0fc6 bf3b 2786 283c f8b9 093c 6475 c7bb
00000070: 78a2 b23c 8ce9 c23c adf7 f63c 640c 6b3c
00000080: 6fd9 e5bb 55e5 cb3b 0fc8 1a3c e875 473c
00000090: 3f45 b9bc 797e a63b 86ab 21bc e400 75bb
000000a0: ae82 7e3c 8005 703c 74bc 0a3c 7c2b 0f3c
000000b0: 05c2 283c b634 f13b c271 2b3c 44dc e83b
000000c0: d0aa 0a3c e96d 2f3c
-0.008240103 -0.003960881 0.027619604 0.00049861113 -0.0061654323 -0.008772881 0.00013513103 0.0005391484
-0.0008936779 0.010253333 0.020437203 -0.0103223445 -0.052567266 0.03599023 0.0058818962 -0.010445018
0.021515992 -0.008960085 0.024028169 0.010650706 -0.024188714 -0.01789043 0.0056410953 -0.012431854
0.005852468 0.010285891 0.008406155 -0.006086992 0.021805987 0.023793004 0.030147398 0.014346216
-0.0070144455 0.006222407 0.009447112 0.012174107 -0.022616027 0.0050809947 -0.0098675545 -0.0037384564
0.015534086 0.014649749 0.008467782 0.008738395 0.010300164 0.00736102 0.010464134 0.007106336
0.008463576 0.010707357

running_var f4 [50]
00000000: e7cb 7c3f 3505 813f 7ea5 713f 23d9 593f
00000010: 3ba9 8c3f b593 2f3f 5276 813f b41d 823f
00000020: 96a4 823f a341 813f ba8e 873f fd38 763f
00000030: d00e 513f 73ba 863f d057 783f d08b 843f
00000040: 8630 7b3f b6ad 803f 71ef 9d3f e0bb 813f
00000050: 3f2f 7f3f 26ba 6b3f 7c2e 803f 9126 7d3f
00000060: 167a 843f fe90 853f c8b6 843f 1426 793f
00000070: 8ace 773f c2d3 853f ec49 863f 417a 813f
00000080: fe9e 7f3f 5f10 843f aa0e 933f 05c5 853f
00000090: 32c9 2b3f 69c2 923f 9c3b 7c3f d8e8 803f
000000a0: 35f1 803f 679b 803f 2866 823f 4ea9 823f
000000b0: 2969 843f f5cd 833f e45b 833f 74f2 803f
000000c0: a6eb 803f 1fd7 833f
0.9874863 1.0079714 0.94393146 0.8509695 1.0989145 0.6858476 1.0114233 1.0165315
1.0206478 1.0098156 1.0590432 0.9618071 0.8166323 1.052565 0.9700899 1.0355167
0.98120916 1.0053012 1.2338697 1.013546 0.99681467 0.92080915 1.0014186 0.9888697
1.0349758 1.0434873 1.036828 0.9732373 0.9679953 1.0455248 1.0491309 1.0115434
0.9985198 1.0317496 1.148885 1.045075 0.67103875 1.1465579 0.98528457 1.0071058
1.007361 1.0047425 1.0187426 1.0207918 1.0344592 1.0297228 1.0262418 1.0073991
1.0071914 1.0300025

weight f4 [200, 211]
00000000: 7086 06bd de2c 5c3d 536c 95bd 642f e5bc
00000010: 6103 b73d dc75 1e3d d347 9a3d 1f99 07be
00000020: b9f8 28bd c6f2 a7bb f800 0d3c af7d f63c
00000030: 704b d5bb 02fe 003d c931 c93d ed44 c83d
00000040: 6643 80bd a6a6 13bd 7995 a1bb 66b2 10bc
00000050: 6d92 26bd db73 743c 0644 703d 7200 bfbb
00000060: 9dde 1e3d 1ce9 bbbc cbe6 193c 4dc4 18bd
00000070: b59f 65bd e65a dfbc c4e2 843c df69 69bd
00000080: 3b96 783d 3d8d 44bd 87e6 e63c 1c09 d13c
00000090: 6b29 2dbd d3c3 b53c 2a86 453d 1e3a 16bb
000000a0: f96a f03c 0173 6d3a a513 3f3d ca2c 19bb
000000b0: f3ea dabc a34c 693d 5bed 2d3d c07c 253d
000000c0: ce15 dfbc 7b37 16bd 3b57 08bd 9edd 50bd
000000d0: ba98 e83c fd7a b6bd d497 40bd 59ab 453b
000000e0: 9d62 37bd e5ce 6cbc e50a 7d3d e5f1 873b
000000f0: 615e 10bd 8444 d8bb f7b9 29bc 68bb 08bd
00000100: d82b 79ba 82fd 6a3c da5b dabc 5239 1a3b
00000110: 28fc 82bd e0c8 b2bc b44d aa3c b504 1bbd
00000120: e23e 7d3d 5fc7 853d dfeb fbbc d65c 42bd
00000130: 5050 773d baed ac3d d43a 08bd 884e 823c
00000140: a0dd 053d 8a30 333d 595d 9abd e780 933d
00000150: f7ee e1bc 2b97 0c3d 3112 1dbd b49f 48bd
00000160: a882 943d a170 8a3b fa9a ccbc a0e9 e73d
00000170: 00d5 973c 5c86 053d 9d16 afbd c59d aa3c
00000180: 9486 ecbb d1da 063d 413d 413e 77df bfbc
00000190: dfb6 7bbc 8fa0 02bd 434c 183d d3b6 babd
000001a0: 367a 0cbd 3b61 ac3d 24c9 d3bc 7f58 4f3d
000001b0: b7e1 afbc a195 b6bd a914 54bd 10ab a73c
000001c0: 795d 8bbc b8e1 9d3c 82c6 e8bc 4092 a83d
000001d0: c9c7 c3bc 7ed6 913d 9d67 a0bd ecfe 3fbd
000001e0: 0785 123d 467d edba 12da cebc 6500 10be
000001f0: 247d ccbd 007d de3c 966f fd3d f526 a0bc
00000200: 6125 80bd 1949 853d 9783 5f3d a7cb 443c
00000210: 9061 173d bd99 ae3d d762 e53c 0550 b4bd
00000220: eda7 d53c 1506 2a3d 1184 e23c a095 a63c
00000230: 739f 263d 2443 c0bc 32ae 143d 4628 db3c
00000240: c369 523d e5f2 70bc 6449 3fbd 6e61 9d3d
00000250: 9cde 393d b539 633d d2cf ac3c 4496 0c3c
00000260: 5a85 463d 5069 e9bc 4d11 983d d01d 213d
00000270: 856f f63d f6bf afbb 23fa 8fbd dd8f cabc
00000280: c19d 073e f01d 19bd 9c64 70ba 7ecd 0ebd
00000290: 1327 b23b c0ff 12ba e0b5 943d a3bc f0bc
000002a0: c7b1 0abe ee1e 193d 8df4 413d 57c6 3dbd
000002b0: 5122 e13c bf6e 773d fbc3 c43c 79b5 96ba
000002c0: 386f 043d 7e2b 8d3b aa41 13bd d977 43bd
000002d0: e323 39bd 69ed ee3c ad5c 32bd e773 e3bc
000002e0: 3dc0 bd3d b807 0b3d 5927 733d eb53 823d
000002f0: ec7b 1bbc d043 903a 1856 8b3d 7425 66bd
00000300: 0fb8 28bd a11d 4a3b 80fb b43c 9e88 a03c
00000310: e419 bf3c fd82 3cbd 3b5f 7ebc 8daf 0b3d
00000320: 8511 55bd f5cb 40bd 1ae2 5cbd e165 e83c
00000330: d1a4 99bd 7b6a 31bd 5f0f 093d af86 51bd
00000340: dfa8 293d 1ce7 22bd 47d1 233b 7147 73bd
00000350: 91a4 bbbd 08a7 9dbd 485c 28bd ec9f d7bc
00000360: 74d8 133d 2474 a03c 1f5d 19bd de6e 3d3c
00000370: 7a66 c23c 4b6e b03d 58bd 9dbd 7428 5fba
00000380: 756b 69be e009 37bd ef13 90bc 4b5d bf3c
00000390: 433e c63d 4f5b 843c 9762 18be a8f8 fb3a
000003a0: 3860 2c3e 4afe cebd a5c5 333e 1d65 843d
000003b0: 7042 e4ba 3a12 503e b068 253e bb8a 80be
000003c0: 21ba 2abc 8245 a73d 44b2 fc3b 06d9 cdbd
000003d0: 5397 2ebc e660 a0bd 7eb2 88bd f26b ba3d
000003e0: 0667 b83c 3665 08bd 2878 2e3d ab3f 87bd
000003f0: 6ad9 20bd 589b 553d b9db 0d3d a123 01bd
-0.032843053 0.053753726 -0.07296052 -0.0279767 0.08936191 0.03868662 0.07533231 -0.13242005
-0.041252825 -0.0051253764 0.008606188 0.030089227 -0.006509237 0.03149224 0.09823949 0.097787715
-0.06262855 -0.0360476 -0.0049311486 -0.008831596 -0.040666986 0.0149202 0.058658622 -0.0058289105
0.03878652 -0.022938304 0.009393404 -0.037296582 -0.05606051 -0.027265023 0.016221412 -0.056985732
0.060690146 -0.047986258 0.028186096 0.025517039 -0.042275827 0.022188103 0.048223652 -0.0022922824
0.029347884 0.00090579694 0.046649594 -0.0023372644 -0.02672336 0.056957852 0.042462688 0.040402174
-0.027232077 -0.036674004 -0.033286314 -0.0509926 0.028393138 -0.08910177 -0.047019795 0.0030161946
-0.04477178 -0.014453624 0.061777968 0.004148709 -0.035246257 -0.0065999646 -0.010359279 -0.03338185
-0.00095051294 0.014342668 -0.026655126 0.00235327 -0.06395751 -0.0218243 0.020789005 -0.037846286
0.061827548 0.06532168 -0.03075212 -0.047451816 0.060379326 0.0844378 -0.033259228 0.015906587
0.03268206 0.043747462 -0.07537336 0.072023205 -0.027579768 0.034323853 -0.038347427 -0.04898043
0.07251483 0.004224852 -0.024976242 0.11323857 0.018534184 0.03259884 -0.08549235 0.020827183
-0.0072181914 0.032923523 0.18871023 -0.023421986 -0.015363424 -0.0318914 0.037182104 -0.09116902
-0.034296237 0.08416983 -0.025852747 0.050621506 -0.021469934 -0.08915258 -0.051777516 0.020467311
-0.017012345 0.01927267 -0.028414968 0.0823102 -0.023898976 0.07120989 -0.07832263 -0.04687397
0.035771396 -0.0018119 -0.025250468 -0.1406265 -0.09984806 0.027159214 0.12374799 -0.019549826
-0.062571295 0.06508083 0.054568853 0.012011445 0.036958277 0.08525417 0.028001232 -0.08804325
0.02608105 0.041509707 0.027650865 0.020335019 0.040679406 -0.023469515 0.036298938 0.026752602
0.051370393 -0.014706348 -0.04670085 0.07684599 0.045378312 0.055474956 0.02109519 0.008580748
0.048467018 -0.0284926 0.07425175 0.039335072 0.120329894 -0.0053634597 -0.07030132 -0.024726802
0.13243772 -0.037382066 -0.00091702654 -0.03486394 0.005436787 -0.0005607568 0.072612524 -0.029386824
-0.13544379 0.037383012 0.047352362 -0.04633173 0.027482184 0.06040835 0.024019232 -0.0011498175
0.03233263 0.004308163 -0.035951294 -0.047721718 -0.04520024 0.02916594 -0.043545414 -0.027765227
0.09265182 0.033942908 0.059363697 0.06363662 -0.0094899945 0.0011006538 0.068035305 -0.05618806
-0.041191157 0.0030840414 0.02209258 0.019596394 0.023327775 -0.046023358 -0.015525634 0.034102965
-0.05201866 -0.04706951 -0.053926565 0.028368892 -0.07502139 -0.04331444 0.033461925 -0.051153835
0.041420814 -0.039771184 0.0024996565 -0.059394304 -0.09162248 -0.07697874 -0.04110363 -0.026321374
0.036095098 0.01958663 -0.037442323 0.011562077 0.023730505 0.08614787 -0.0770213 -0.0008512803
-0.22794898 -0.044687152 -0.01758763 0.023359915 0.09679844 0.01615682 -0.14881359 0.0019223886
0.1683358 -0.101070955 0.17555864 0.06464598 -0.001741482 0.20319453 0.16153216 -0.25105843
-0.010420353 0.081675544 0.0077116806 -0.100511596 -0.010656196 -0.07830982 -0.0667467 0.0910262
0.022510063 -0.033299647 0.04259506 -0.066039406 -0.039269842 0.0521501 0.034633372 -0.03152812

weight f4 [200]
00000000: 9975 7f3f a887 733f 333d 743f 6d28 803f
00000010: 4148 803f 4fff 7c3f ca04 813f 2e09 7d3f
00000020: f286 7c3f 5853 7e3f 0b59 813f f7be 783f
00000030: a444 7f3f 8b6a 813f 5ddd 7c3f 5b4d 783f
00000040: bc33 833f 3560 803f 1f7c 833f cfd6 813f
00000050: 9d69 7e3f 7c72 813f 8e5d 843f 3481 803f
00000060: a9f8 7e3f 6a14 7d3f 7c81 853f d3bd 813f
00000070: 9adc 7f3f 6620 873f 3f11 803f 5ce9 7b3f
00000080: af05 833f 5696 7a3f f5ae 7f3f 7832 7d3f
00000090: 259a 813f 4386 803f 42fc 7b3f 8014 823f
000000a0: 58f1 803f 8adc 823f 1aa9 7e3f 6e3b 803f
000000b0: 2165 823f f7af 773f 0372 7d3f 7c4f 7f3f
000000c0: e0ff 773f ef4d 7c3f c13e 7e3f 66d3 7d3f
000000d0: 893c 7d3f 0750 843f a8b0 7c3f a3c5 803f
000000e0: 4d7f 803f 527d 813f 60f5 833f 25e0 7d3f
000000f0: 7ef1 803f c469 803f aa0a 823f 4f99 7c3f
00000100: 8297 7c3f 7209 803f b657 7f3f d8f7 803f
00000110: 5477 813f 25cf 843f 00cc 7f3f 4067 793f
00000120: 2767 7d3f b2a9 7b3f aa9d 7e3f b0c4 833f
00000130: 166e 793f 0165 813f 6f66 7e3f f153 7a3f
00000140: e641 853f 8101 813f 1dc8 7e3f 7b07 813f
00000150: 65dd 793f 62a4 7f3f 5193 7e3f c030 6f3f
00000160: 66a9 833f d026 823f 88ee 833f f1d5 843f
00000170: 55d8 803f 428e 773f e288 823f f1b5 7c3f
00000180: 29d7 823f 9916 7a3f c166 803f 8ecc 803f
00000190: 3790 763f 810d 853f 61f1 783f 675e 7f3f
000001a0: 3934 803f 6a6c 803f 95f4 803f 32d2 7f3f
000001b0: 79c0 7f3f a884 833f 6bda 843f e862 7f3f
000001c0: 9362 773f ff28 7d3f ad33 803f d13c 803f
000001d0: 1915 823f eca3 793f d91d 813f 4568 843f
000001e0: 5627 833f 435d 823f 878a 7a3f 4999 7e3f
000001f0: 354f 803f 517a 7e3f b136 7e3f 2b4b 813f
00000200: fe94 7d3f 6a94 7f3f d370 7c3f 350e 803f
00000210: db38 7e3f 23c9 7a3f 093e 813f 69c4 7c3f
00000220: f805 843f ce77 6d3f cb97 823f af52 813f
00000230: a955 763f d242 7e3f b2c4 7a3f 3cfa 813f
00000240: 1f27 7c3f 391b 813f f8c6 823f 39cf 873f
00000250: 532b 7c3f a92a 803f 5ff5 7c3f 2808 823f
00000260: 940a 853f 1a5c 843f a20d 7c3f b70b 7b3f
00000270: 59f2 813f 01ff 713f e404 803f c97a 803f
00000280: 3364 7f3f efb3 813f d87d 803f 3a00 723f
00000290: 08ca 7d3f 2092 833f 55a0 813f db7b 7e3f
000002a0: 745d 823f e876 7d3f 16c8 793f 9c7a 7b3f
000002b0: f4a6 793f 5b04 843f d7f3 7a3f 8592 803f
000002c0: 77f2 813f a836 7f3f 122f 833f fb30 803f
000002d0: dc4e 843f 4e05 803f 9b0d 803f b607 833f
000002e0: 0761 823f 94a7 813f 19c6 803f 5c71 7f3f
000002f0: b87a 7e3f 1b1c 783f 233b 7e3f 944a 7f3f
00000300: 6c1d 7d3f 2959 7d3f 242a 7f3f f9a3 7a3f
00000310: 508c 7f3f 5df6 793f 96a5 7a3f 7292 813f
0.99788815 0.9512887 0.9540588 1.0012337 1.002205 0.9882707 1.0079587 0.9884213
0.9864341 0.9934592 1.0105299 0.9716639 0.9971411 1.0110639 0.98775274 0.96993035
1.0250163 1.002936 1.0272254 1.0143679 0.99379903 1.0113063 1.0341051 1.003943
0.99598175 0.98859274 1.043014 1.0136055 0.99945986 1.0556762 1.0005263 0.98402953
1.023611 0.97885644 0.9987634 0.98905134 1.0125166 1.0040973 0.9843179 1.0162506
1.0073652 1.0223553 0.9947678 1.0018137 1.0187112 0.96752876 0.99002093 0.9973066
0.9687481 0.9855642 0.99314505 0.99150693 0.98920494 1.0336922 0.98707056 1.0060314
1.0038849 1.011637 1.0309258 0.9917014 1.0073698 1.0032277 1.0159504 0.9867143
0.9866868 1.0002882 0.9974321 1.0075636 1.0114541 1.0375715 0.99920654 0.9742317
0.98985523 0.9830581 0.99459326 1.0294399 0.974336 1.0108949 0.9937505 0.97784334
1.0410736 1.0078584 0.995241 1.0080408 0.97603446 0.99860203 0.99443537 0.9343376
1.0286071 1.0168095 1.0307169 1.037779 1.0066019 0.96701443 1.0198023 0.9871512
1.0221912 0.9769073 1.0031358 1.0062425 0.96313804 1.0394746 0.97243315 0.9975342
1.0015937 1.0033085 1.007464 0.9993011 0.99903065 1.0274858 1.0379156 0.99760294
0.9663479 0.9889068 1.001577 1.001856 1.0162688 0.9751575 1.0087234 1.034432
1.0246379 1.0184711 0.97867626 0.99452645 1.0024172 0.9940539 0.993022 1.0101064
0.9905547 0.99835837 0.98609656 1.0004336 0.99305505 0.9796316 1.0097057 0.987372
1.0314322 0.9276093 1.0202574 1.0103358 0.9622446 0.9932071 0.97956383 1.015449
0.98497194 1.0086433 1.021697 1.0610114 0.9850361 1.0013019 0.98811907 1.0158739
1.0393853 1.0340607 0.984583 0.9806475 1.0152084 0.9452973 1.0001493 1.0037471
0.99762267 1.0133036 1.0038404 0.94531596 0.991364 1.0278969 1.0127054 0.9940774
1.018477 0.9900956 0.9757093 0.9823396 0.97520375 1.0313829 0.9802832 1.0044714
1.0152119 0.99692774 1.024874 1.0014948 1.0336566 1.0001619 1.0004152 1.0236728
1.018586 1.0129266 1.0060455 0.9978235 0.99406004 0.96917886 0.99308985 0.9972317
0.9887302 0.9896417 0.99673676 0.9790645 0.99823475 0.97641546 0.97908914 1.0122817
