model/ag-20250203_153657/models/NeuralNetFastAI_BAG_L2/S1F8/model-internals.pkl (torch, 329643 bytes, 50 tensors)

weight f4 [6, 4]
000000 45 1d 0d bb b5 b5 f2 bb 6a ee b7 3b 57 b9 29 3b
       -0.0021532339 -0.007406915 0.005613138 0.0025897825
000010 6b c5 8e bb 41 ef 83 bc 48 9d f6 b9 49 7b ae 3c
       -0.00435703 -0.016105296 -0.0004703796 0.021299021
000020 ff 4f 7c 3c aa 1c d9 3b d9 4c 1e 3d 4e 43 3c 3c
       0.015399932 0.0066257315 0.038647506 0.011490656
000030 4b eb 84 bc 02 34 b5 3c eb 41 82 3c 25 11 61 bd
       -0.016225478 0.022119526 0.015900573 -0.05494799
000040 56 f3 da bb 65 d2 28 bc 5b e7 24 bd 64 e1 b9 bc
       -0.00668184 -0.010304068 -0.0402597 -0.022690482
000050 11 f2 01 bd 7f 95 9f 3c 0c 0d e7 3c b7 f4 ce 3c
       -0.031724993 0.019480465 0.028204463 0.025263174

weight f4 [5, 4]
000000 00 4e 1d 3c 39 42 64 3b 48 98 16 bc 62 f1 12 ba
       0.009601116 0.003482951 -0.00919158 -0.0005605427
000010 4b 8c d0 bc d8 06 50 39 77 3d 87 bc bf a4 2b bd
       -0.025457522 0.00019838975 -0.0165088 -0.04190516
000020 3c 33 79 3c 76 81 10 bd e6 47 82 3c f5 21 df ba
       0.015209969 -0.035279714 0.015903424 -0.001702367
000030 c1 50 52 bc 2d 9c 88 3d 46 51 74 3a 5f 30 78 3d
       -0.012836636 0.06670413 0.0009319972 0.060593005
000040 ee a0 a8 3c 46 76 20 3c ec 16 8c 3c 87 d4 83 3c
       0.02058455 0.009793824 0.017100774 0.016092552

weight f4 [5, 4]
000000 df 23 90 3a 9d d1 05 bc 90 d3 ce 3b 5b a3 9c bc
       0.0010997019 -0.0081676515 0.0063118413 -0.019120863
000010 ce e1 b9 3d 75 06 b0 3d 9a 9b fc 3c 9d 95 2f 3d
       0.09076272 0.085949816 0.030835915 0.04286729
000020 07 bc 5f bd 98 de 3c 3b 9d 24 04 3d 28 4d cf bc
       -0.054622676 0.00288192 0.03226148 -0.025305346
000030 4b f6 06 3d 01 44 7f 3d b6 00 1f bc 73 ea 96 3c
       0.032949727 0.062320713 -0.009704759 0.018422341
000040 32 d4 ea bc 09 ff 79 bd 82 9a 9f bc fd a6 24 bd
       -0.028665636 -0.061034236 -0.019482855 -0.040198315

weight f4 [6, 4]
000000 5a 8e 73 3c 84 f9 e4 bb c6 13 ec 3a a6 83 5e 3c
       0.014865482 -0.0069877524 0.0018011264 0.013581192
000010 d2 11 26 3b 6b c2 3d 3d 34 15 dd bc 4d c9 f6 39
       0.0025340212 0.04632799 -0.02698765 0.00047070757
000020 c2 83 9e bc d1 d0 a5 3c dd 6d 0a bd ea 23 1a bb
       -0.019349936 0.020241173 -0.03379618 -0.0023519942
000030 59 6e 6f 3c a5 49 72 bd f6 d2 41 3d b2 63 50 3d
       0.014613711 -0.059152264 0.04732033 0.050876327
000040 80 aa 26 3b 05 f2 dc 3a af d8 15 3d 53 46 86 3c
       0.0025431216 0.0016856795 0.0365836 0.016390955
000050 3f 6d 64 3d aa 68 c7 bc c3 b8 11 bc ee f1 a5 39
       0.055768248 -0.0243419 -0.008894148 0.00031651504

weight f4 [4, 3]
000000 17 e2 27 3c a1 35 37 bc a1 da ee 3b 8f ed d1 bc
       0.010246775 -0.01118222 0.007289246 -0.025625972
000010 08 d8 94 3c 39 3c 9a 3b b2 0f 0b bd 22 f0 56 3d
       0.018169418 0.004706886 -0.033950515 0.052475102
000020 23 16 65 bc de 5c 18 bd 2c 82 27 bd 29 8e 11 3d
       -0.013982329 -0.03719794 -0.040895626 0.035535965

weight f4 [26, 10]
000000 21 3d 78 ba 37 ea 33 3c 46 2b 56 3c 8f 70 3f bb
       -0.0009469558 0.010981134 0.013071841 -0.0029211377
000010 49 a7 88 3b 89 fc 38 bc bd e5 05 bc 19 62 1b bc
       0.0041703326 -0.011290678 -0.00817245 -0.0094838375
000020 2d 9a 3a 3b c9 b8 15 3b a3 89 d5 3a 75 1b 86 bd
       0.0028473244 0.0022845736 0.0016291629 -0.06548206
000030 3f ae 84 3d 68 43 bf 3b 2e 83 0b 3d 7a b9 cc bb
       0.06478547 0.005836893 0.03406065 -0.0062476965
000040 c4 b2 e5 bc 0e 32 1c bc 0b 99 18 3d 07 ba 73 bd
       -0.028039344 -0.009533418 0.03725533 -0.05950358
000050 ed ef e2 bc 48 14 af 3b ac 75 a7 bc ba b7 35 3c
       -0.027702296 0.005342994 -0.020441853 0.011091167
000060 78 78 50 3d 12 fd e1 3c ba d3 8a bb 0b ff 58 3c
       0.050896138 0.027586494 -0.0042366656 0.013244401
000070 d2 8f ac 3c 7c bf bf bc 66 4a 50 bc 1c 55 80 bd
       0.021064673 -0.023406737 -0.0127130505 -0.06266233
000080 c2 ed 69 bd f7 94 1d bc 8c 02 84 ba 7e 0b 86 bd
       -0.05711151 -0.0096180355 -0.001007156 -0.06545161
000090 17 3f 29 bd 99 f4 3f bc 57 2b 48 bd 2e 16 f7 3c
       -0.041319933 -0.0117160315 -0.048869457 0.030161943
0000a0 db c9 35 3d 25 3d 56 3d eb 0f b7 bb 91 1f 43 3d
       0.044381958 0.052304406 -0.0055866144 0.047637526
0000b0 e0 4f 36 bd a8 e9 c4 3c cf a3 b6 3c c8 df bb bc
       -0.04450977 0.024037197 0.022294907 -0.022933856
0000c0 88 93 b2 3c ac 11 6d 3d 70 88 04 bd e3 4b 2a bd
       0.021798864 0.05787818 -0.03235668 -0.041576277
0000d0 62 80 b5 3c 7a 1e 37 bc 22 64 97 3c b9 e3 f3 3b
       0.022155944 -0.0111767 0.018480364 0.007442918
0000e0 85 9a 23 bd 8b c1 0b 3d cd 96 cc 3c 76 ba 9d bb
       -0.039942283 0.034120124 0.024974251 -0.0048134876
0000f0 83 86 82 3c 41 db a2 bb 8a f6 3e bc 8d 12 3f 3d
       0.01593328 -0.0049699848 -0.011655459 0.04664855
000100 57 94 43 3c 2e 90 6f ba 50 5e 89 3a 8b 61 e5 bc
       0.011937222 -0.0009138611 0.0010480378 -0.028000614
000110 9d 38 b8 3a f8 04 be 3c 17 22 63 bc 84 c9 b5 3d
       0.0014054958 0.023195729 -0.013863108 0.08876327
000120 82 34 97 bb ba ac 62 bd f0 24 b4 bd 0d 82 6c bd
       -0.0046144137 -0.055340506 -0.08796108 -0.057741214
000130 2c 6f 95 3d 51 bf 2a 3d d3 6a f5 bc 71 ff 16 3d
       0.07296595 0.04168636 -0.029958164 0.0368647
000140 e6 20 fa bc e7 3b e6 bd 38 15 36 3d b7 0c 04 bd
       -0.030533265 -0.11241894 0.04445383 -0.03223869
000150 7c 1b a6 3d 02 fd 6a bd 33 10 8a bc bc 1c 00 bd
       0.08110711 -0.057370193 -0.016853428 -0.031277403
000160 b1 eb 69 3c c8 bb 62 bd 15 93 c1 3c a7 d8 85 3d
       0.014277385 -0.055354863 0.023629704 0.06535464
000170 45 49 f4 3c b2 11 78 b8 f1 15 11 3d d8 e9 d6 3c
       0.029820094 -5.9144288e-05 0.035421316 0.026234552
000180 0e f4 57 bd 8a 91 32 bc 40 79 11 3d 24 37 6d bd
       -0.052722983 -0.010898957 0.035516024 -0.057913914
000190 86 b2 3e bd 02 8b 14 bd b2 70 ef bc 04 28 0c bc
       -0.046556972 -0.03626538 -0.029228542 -0.008554462
0001a0 30 7c 33 bd 13 6e 1e bd 17 8a fd 3c ac d0 e0 bc
       -0.043819606 -0.038679194 0.030949635 -0.027443253
0001b0 7a 6f 41 bc 27 ce 03 3d dc c6 50 bd 1b 66 41 bd
       -0.011806363 0.032179024 -0.050970897 -0.047216516
0001c0 9a 34 27 bd 02 d5 86 ba 7e 8b b0 3c 1c 5f cd bc
       -0.04082165 -0.001028687 0.02155089 -0.025069766
0001d0 97 ff 4a bc 40 b8 65 3c 9b be 48 3c fc 5d 34 bc
       -0.012390039 0.014020979 0.012252475 -0.011008736
0001e0 b1 cd e7 bc d9 cf d6 bc 51 e5 95 3c ca fb 83 3a
       -0.028296323 -0.026222156 0.018297823 0.0010069546
0001f0 c0 a7 7c 39 8f 87 86 bb 35 70 42 3c 9b 16 5d bb
       0.00024095085 -0.0041055153 0.011867573 -0.0033735398
000200 19 bd a1 bc 8c ea cd 3c ee f3 45 3b 1e b6 df bb
       -0.01974349 0.025136255 0.0030205208 -0.00682713
000210 ac c0 9c 3d 8c d6 ec bc ff c3 a7 3d 2b 0f ee 3c
       0.07653937 -0.028910898 0.0819168 0.029059967
000220 d7 4e 5a bd ba fd 6b 3c 3b cd 4f 3d 95 5e 4d bd
       -0.053297844 0.014403755 0.050732832 -0.05013903
000230 63 ea 9a 3c 91 25 9e 3b 4c af e8 bc 4b 79 57 3c
       0.018910592 0.0048262556 -0.0284039 0.013151477
000240 30 91 b3 3c c8 cf 02 3d 42 18 f4 bc 85 de 4f bd
       0.021919817 0.031936437 -0.029796723 -0.05074932
000250 b7 7c 6c 3c cf ab aa 3b d8 10 3f bd 08 71 a7 bd
       0.014434031 0.0052084695 -0.046646923 -0.08175856
000260 24 96 c7 3d 25 53 dc bc b5 92 a3 3d 8a 74 92 3c
       0.09745434 -0.026895115 0.079869665 0.017877836
000270 b8 6f 95 bd 2a 80 9e 3d 1e d4 ea 3b 9a bf b3 bd
       -0.07296699 0.07739289 0.0071663996 -0.087767795
000280 3a ff 79 3d 58 98 89 3d 08 0a 24 bd 1a 96 7f bc
       0.06103442 0.067185104 -0.04004863 -0.015599752
000290 13 8d cd bd f2 d5 7b 3c 87 cd ba 3c dd 87 ad 3c
       -0.100366734 0.015370833 0.022803081 0.021182949
0002a0 69 b3 97 bc a2 de 94 3d d2 7f c1 3c 8e d0 1c bb
       -0.018518167 0.07269026 0.02362052 -0.002392802
0002b0 90 ec 18 3b 55 77 36 3d 78 e2 21 bc dd 74 05 3d
       0.0023334362 0.044547398 -0.0098806545 0.032582153
0002c0 70 d0 69 bc 4c 1b 20 bb ca 43 f7 bc b8 85 71 3a
       -0.014270887 -0.0024430333 -0.030183692 0.0009213346
0002d0 ee 26 ea bc a1 8b 4a bc 1c 2e 44 bd a9 25 29 3c
       -0.028583016 -0.012362392 -0.047895536 0.01032392
0002e0 e0 2a 72 bb a5 fd 6d bb 0e 2e 32 bd 35 44 d6 3b
       -0.0036951825 -0.0036314514 -0.043500952 0.0065388926
0002f0 0e eb 27 3c 5e 52 7c 3b 26 14 92 ba 40 42 96 3c
       0.0102489125 0.0038501243 -0.0011144921 0.018342137
000300 a8 be 91 3c e7 46 98 bc 6e 9c 64 3d d8 c5 e4 3c
       0.017791107 -0.018588496 0.055813245 0.02792637
000310 8a e5 82 bd cb 4f db 3c 5c 2d 17 3d 9c 92 d0 bc
       -0.06391437 0.026771447 0.036908492 -0.025460534
000320 86 ac c7 3a dc 0d b2 bc 51 a6 f5 bc 1d d8 fa 3c
       0.0015233911 -0.021735124 -0.029986532 0.030620629
000330 26 07 03 3c 7c d6 b5 3b 70 43 ce bb ea dd 59 bc
       0.00799731 0.00554925 -0.0062946603 -0.013297537
000340 a3 ca 84 bc 5a 94 53 bb ed 71 f8 bc a2 1d 00 bd
       -0.016209906 -0.003228447 -0.030327762 -0.03127826
000350 04 19 ae bc f5 09 c3 3c cc 01 11 bd 5e 5a b8 3c
       -0.021252163 0.023808459 -0.035402104 0.022504028
000360 eb 7c e8 3c b0 81 26 3c 19 15 db 3a 0f b8 9e 3c
       0.028379878 0.010162756 0.0016714662 0.019374875
000370 9d 91 ac 3c 98 dc 9e 3c ca ff c8 bc e5 73 a6 bc
       0.021065528 0.019392297 -0.024536032 -0.020318935
000380 80 38 8b bd ba 64 b4 3c 9a c7 fd 3b 4f 91 cd 3c
       -0.06797886 0.022020686 0.0077447416 0.025093703
000390 88 20 73 3a b0 0e 37 3d a2 a2 63 3c 31 c9 68 3d
       0.0009274562 0.04469174 0.013893755 0.056832496
0003a0 bc 7d a7 bd eb ec 8d bd a4 ec f7 bd 4d 8c ef bb
       -0.08178279 -0.06929954 -0.121056825 -0.0073104263
0003b0 ed 20 d1 3d 7d c7 65 3d c4 28 ee bc 71 43 b5 3d
       0.10211358 0.05609845 -0.029072173 0.08850754
0003c0 11 05 e5 3c 5e 15 65 bd ab f2 ac 3d ee f3 43 3d
       0.027956517 -0.05592858 0.08444723 0.04784005
0003d0 6b 6a 57 3d 1a 1a 23 3d 84 75 4e ba 1a 14 63 bc
       0.052591722 0.039819814 -0.00078757876 -0.013859773
0003e0 ce 2c e5 3c 4d 13 17 3b 25 e1 a0 bc 2f ad 7f 3d
       0.027975466 0.0023052276 -0.019638607 0.06242102
0003f0 43 48 ed 3a 22 ac 85 bc 5f 05 65 bd 86 eb 1b bd
       0.0018103201 -0.01631743 -0.055913325 -0.03806641

weight f4 [10, 6]
000000 a1 d7 96 bb 57 22 c7 39 bd 63 58 bc d4 59 b5 3b
       -0.0046033417 0.00037981823 -0.013207373 0.00553439
000010 4a ca 30 bc 61 d8 57 bb f4 fd 93 3b 7c d8 06 bd
       -0.010790417 -0.0032935368 0.0045163576 -0.0329213
000020 59 2b c4 bc 50 fc f6 3c 6e 32 36 bb ef 8e 01 3c
       -0.023946451 0.030149609 -0.0027801055 0.007907613
000030 9a c8 e8 bc f6 86 5c bc ac a6 68 bb 83 a9 cb bb
       -0.028415967 -0.013459912 -0.0035499735 -0.0062152757
000040 42 19 42 3d 90 2e 26 3c 98 67 be 3b be 28 e5 bc
       0.04738737 0.010142937 0.005810689 -0.027973529
000050 6f 9d 27 3c 74 df 2c 3d 78 4b a3 bd ee 21 a7 3c
       0.010230406 0.04220529 -0.07973379 0.020401921
000060 2c 21 9f bd 37 71 e9 bb a0 31 13 3c 74 97 ca bc
       -0.07769999 -0.007124092 0.0089839995 -0.024730422
000070 d3 28 23 3d 4e e2 0c bd 6b 87 33 bd 1d 20 04 bc
       0.039833855 -0.03439551 -0.043830317 -0.008064297
000080 ae 84 98 3d 73 3c 9a bd b6 dd 7b 3d a3 be a4 bd
       0.07447182 -0.07531061 0.061490737 -0.080441736
000090 80 07 e4 bc 58 f7 f7 b9 7a a5 c6 bc 4f ad 03 bd
       -0.027835608 -0.00047295797 -0.024248827 -0.0321477
0000a0 e6 14 4a 3c 72 62 c3 bc 5c 54 31 3c 2e 2c 80 3c
       0.012334084 -0.023850653 0.0108233355 0.015646067
0000b0 7d 34 c8 bc ce 02 15 3b 8d c2 4b bc a3 c5 12 3c
       -0.02443909 0.0022737267 -0.012436521 0.008958253
0000c0 b5 da 8e 3c d0 38 b9 3c 12 05 22 3c 4c e9 0b bd
       0.017438272 0.022610098 0.009888904 -0.034158036
0000d0 cc 25 9d bc 54 50 d9 bc b5 8b df 3b f7 fe b2 bb
       -0.019183062 -0.026527561 0.0068220743 -0.005462523
0000e0 5e 5a cc 3c 92 53 f9 bc 80 f5 80 3d 39 9c c7 3c
       0.024945434 -0.030435357 0.062968254 0.024366485

weight f4 [6, 4]
000000 45 24 52 bc 9b 51 b0 3c 59 b5 47 3b 17 3e b6 ba
       -0.01282603 0.021523288 0.0030473082 -0.0013904002
000010 b8 86 93 3b ff 85 13 bd cb 5a 15 3d d3 c0 6b bd
       0.0045021437 -0.03601646 0.03646354 -0.05755694
000020 97 4a 14 3c a1 9f 72 bc 2d 37 d5 bc f2 6c 52 bc
       0.009050987 -0.014808566 -0.026027286 -0.012843357
000030 4a 77 b4 3a 0a cb 4c 3d dc 95 af bc bb 93 4f bb
       0.0013768461 0.04999832 -0.021433763 -0.0031673748
000040 ff c6 b2 bd 31 76 1b 3d 9b 9d 9b 3d 2b a2 d7 bd
       -0.08729362 0.037954513 0.0759842 -0.10528978
000050 d5 b4 9c bc 03 e5 55 bc bc 83 96 3c 0f 67 46 bc
       -0.019129196 -0.013055089 0.018373363 -0.012109532

weight f4 [6, 4]
000000 80 0d c3 3b c3 d8 23 3c 5c 18 06 bc c8 6e a6 3b
       0.005952537 0.0100004105 -0.008184519 0.005079124
000010 21 83 85 3c 74 23 97 3c 30 7a 32 39 fd 8f e6 bc
       0.016297879 0.018449523 0.00017020921 -0.02814483
000020 23 81 12 bd 64 22 01 3d 32 31 12 3c 3f b9 cf bc
       -0.035767686 0.031526938 0.008922862 -0.025356887
000030 f9 d7 8d bc 02 4d 57 3c f2 d1 ce 3c 52 f8 02 bc
       -0.017314898 0.013140919 0.025246594 -0.0079937745
000040 90 af 50 3d f3 fb 26 3d d9 01 f9 bc 29 53 48 bc
       0.05094868 0.04076762 -0.030396389 -0.012226858
000050 9b f9 f0 3c 83 83 2d bc ff a0 28 bd 0c 4a 5a bb
       0.029415896 -0.010590437 -0.041169163 -0.0033308296

weight f4 [9, 5]
000000 b3 23 a8 bb a1 43 31 bc e6 55 88 3c d5 21 62 bb
       -0.005131209 -0.010819347 0.016642522 -0.0034505029
000010 00 b8 ca 3b 07 61 a9 ba d9 fe 65 3d 96 07 af bd
       0.0061864853 -0.0012922593 0.056151245 -0.08546369
000020 36 59 b8 3c 45 13 c8 3c 83 ea eb bb 8d 43 b7 bc
       0.022503477 0.02442325 -0.007199587 -0.022371078
000030 9d c6 18 3d c9 3a 32 bd fb 2c 05 bd 34 b3 8f bc
       0.037298787 -0.043513093 -0.0325136 -0.017541505
000040 71 98 06 3c a5 1f 5a bb 8d af b5 3c be 59 d3 ba
       0.008215056 -0.0033283022 0.022178436 -0.0016124768
000050 9e 79 43 bc 59 91 fd 3a 18 a2 98 3b e7 54 02 3c
       -0.011930851 0.0019345685 0.004657995 0.007954813
000060 3a 03 06 b9 68 5f e2 3a 77 ae 03 bd 50 25 6e 39
       -0.00012780438 0.0017270865 -0.032148805 0.00022711349
000070 b8 af e0 bc 65 74 e4 bc a7 0f a6 3c ce 2e 8c 3c
       -0.02742754 -0.027887532 0.020271135 0.017112162
000080 2c ec 38 bc 6c 66 5e bc e2 95 d3 3b 4b 72 00 bd
       -0.0112867765 -0.013574224 0.0064570764 -0.031359
000090 20 15 18 bc f3 9f ab 3c 80 df f0 3b 9c 31 fd bb
       -0.00928238 0.020950293 0.007350862 -0.007726861
0000a0 69 7c 16 3c 17 64 d0 bc 1d ca 44 3b 06 07 1f 3c
       0.009184935 -0.025438352 0.0030027695 0.009706264
0000b0 e7 06 89 3c
       0.016726924

weight f4 [7, 5]
000000 99 02 ab bb 0a fb 80 38 76 33 b5 bb 52 09 8a bc
       -0.0052188155 6.150275e-05 -0.0055298163 -0.016850147
000010 e0 04 5a 3c 5a 08 36 bd 0c 59 ad 3c 24 0c c5 3b
       0.013306826 -0.04444156 0.021160625 0.00601341
000020 b8 c7 18 3d 93 72 22 3d 53 7e 1b bc e2 3a fc 3c
       0.03729984 0.039660048 -0.009490567 0.030789796
000030 3b 14 e3 bb a3 93 04 bc cc 5c c9 bc cd 36 4e 3d
       -0.006929902 -0.00809184 -0.024580382 0.05034523
000040 22 b4 6b 3b b9 9e 84 3c f2 1c df 3b be 3d f2 3c
       0.0035965522 0.016188966 0.0068088705 0.029570457
000050 b2 77 fe 3b 9a 4a 37 3b 79 fa c3 3c c9 bd 3f 3c
       0.0077657336 0.002796805 0.023923146 0.011702963
000060 be 9a 59 3b fb 29 87 ba 6c 4b 85 bc ca 8e cd bc
       0.0033203806 -0.0010312194 -0.016271316 -0.025092501
000070 88 57 0a 3d b5 bb 50 3c 5f a0 04 3d f9 d5 28 bd
       0.033774883 0.012740065 0.032379504 -0.041219685
000080 1b 5f df bb 48 f4 43 bd 5f 17 48 bc
       -0.0068167574 -0.047840387 -0.012212603

weight f4 [5, 4]
000000 59 27 96 bd b3 31 91 3d c2 60 8c bb 19 86 58 bc
       -0.07331724 0.070895575 -0.0042839954 -0.013215565
000010 41 cf 43 bc db 37 2f 3c b8 01 45 bd a3 58 b4 bc
       -0.011951269 0.010694469 -0.048097342 -0.022014922
000020 a1 e8 82 bd e1 64 f2 3c c2 a6 c3 bc 6a 4a 0c 3c
       -0.06392027 0.029589118 -0.023883227 0.008562664
000030 63 30 12 bd 3b 6a 19 bc 02 61 30 bd 77 50 33 bd
       -0.035690676 -0.009363706 -0.043061264 -0.04377791
000040 ed e5 04 3e 89 a1 77 bd 7f da 37 3d b7 a9 1e bd
       0.12978335 -0.060456786 0.04488611 -0.03873607

weight f4 [13, 7]
000000 4f 95 03 3d 4b 60 c9 3c 9c 9c cd 3d ad 30 78 bd
       0.032124814 0.024582049 0.100396365 -0.060593296
000010 10 e6 6f 3c e3 44 bd 3d e9 17 78 3d 09 61 42 3c
       0.0146422535 0.09241655 0.060569678 0.011863955
000020 96 9d 23 3b 4b 44 07 3c 4e 4f 28 3c d4 d4 77 3d
       0.0024965755 0.008256028 0.010272814 0.060505703
000030 4f 1c d7 3c b4 d1 16 bd 4e c1 03 3c 9c 27 73 3b
       0.026258616 -0.036821082 0.008041693 0.0037102466
000040 4e 98 aa 3b 8f c0 d8 bc 04 0e 0a bd fd e3 d6 bb
       0.0052061444 -0.026459007 -0.033704773 -0.00655794
000050 b4 b5 59 bd ce da 59 bd 5f b7 51 3d 85 3b 7a bd
       -0.0531518 -0.053187184 0.051200267 -0.06109192
000060 a5 a6 d1 3d b6 08 72 3d 17 2d 80 bd 1d f3 8f bc
       0.10236863 0.05909034 -0.062586 -0.01757198
000070 b1 46 3f bd 42 11 f4 3c f6 36 ce 3c 1e 31 4c 3c
       -0.046698276 0.029793385 0.025172692 0.012462882
000080 a0 4b 68 bd 6f bf ce bc 45 a4 a8 ba 04 ab a0 3b
       -0.056712747 -0.025237767 -0.0012866339 0.004903199
000090 31 e4 ac 3b 5b 82 26 3d 64 b9 af bc 41 91 c0 bc
       0.005276226 0.04065166 -0.021450706 -0.023506762
0000a0 5e f3 d1 bb 80 28 0c 3d 22 b9 1e bd c4 39 05 bb
       -0.0064071855 0.03421831 -0.038750775 -0.002032862
0000b0 5c 5d 07 bd e5 66 2e bc a8 dd 28 3c 31 e8 16 3c
       -0.03304802 -0.010644649 0.010306753 0.009210632
0000c0 1c b8 00 bd 6f e3 86 3c 47 71 10 bd a8 98 7e bb
       -0.03142558 0.01646587 -0.03526428 -0.0038848314
0000d0 88 a3 8f 3c ac 0f 8e 3c 59 f2 b5 3c 00 d6 75 b7
       0.017534032 0.017341457 0.022210287 -1.4652964e-05
0000e0 14 81 81 bc 87 46 19 3c 00 6e f8 3b f4 fb 31 bb
       -0.01580862 0.009355194 0.0075814724 -0.0027158232
0000f0 82 4c 4f 3c 5b 08 6b bc 00 b1 1a bd f4 3c 58 3d
       0.012652518 -0.014345254 -0.037766457 0.052792504
000100 ba e2 08 bd 5a 9e 52 3d 06 7b 1c bd d6 fd 22 3d
       -0.03341935 0.051420547 -0.03820326 0.039792858
000110 21 76 3a 3d e0 61 5d 3d 0d e9 0d 3d b8 22 5a 3b
       0.045522813 0.05404842 0.034646083 0.0033284854
000120 90 49 6e 3b bc cf b6 bc c2 70 66 3c 8c 92 07 3d
       0.0036359765 -0.022315852 0.0140649695 0.033098742
000130 c9 76 2c 3d ba 74 94 3b bd d5 b9 3b 3c a9 63 bd
       0.04210547 0.0045305165 0.0056712315 -0.055581316
000140 14 d6 9e bc 22 70 99 bc 0f df 86 bd 63 af ea bc
       -0.01938919 -0.018730227 -0.06585514 -0.028648084
000150 8a 63 f9 3c e5 b0 39 bc 31 00 57 3d ee 29 54 bd
       0.030442972 -0.011333679 0.052490417 -0.0517978
000160 38 b0 d0 3a 29 01 3d 3d d7 be 2b 3c
       0.0015921658 0.046143685 0.0104825115

weight f4 [15, 7]
000000 5f 33 04 bd b9 d0 18 3d d6 9c 14 bb 5f 4e 61 3c
       -0.032275554 0.03730843 -0.002267649 0.013751595
000010 ee 31 11 3c 40 0b 27 bd aa 43 4a 3d 1a 50 b7 bc
       0.008862002 -0.040782213 0.049380936 -0.022377063
000020 55 aa a5 3c 34 2a 3f bc fa ca 9f bc 87 28 00 bb
       0.020222822 -0.011667777 -0.019505966 -0.0019555406
000030 3b 66 d4 bb 88 b0 b2 3c 7e 20 cf 3b 13 2f 49 3d
       -0.0064819134 0.021812692 0.006321012 0.04911716
000040 ef eb 14 3c 2f 2b 1a 3d a6 40 0d 3d b5 e0 02 bd
       0.009089454 0.03763884 0.03448548 -0.03195258
000050 ac bd f2 3c 83 5d ff bb 62 07 69 3c 03 3b 13 bc
       0.029631458 -0.00779313 0.014222952 -0.008986237
000060 ef 3f 2d 3d aa 30 73 bb bf 04 64 3c e2 58 18 bd
       0.0422973 -0.0037107863 0.013917147 -0.03719414
000070 b3 ba 52 3d f9 ae 35 bc 60 4c c8 bb 8a 6c ae 3b
       0.05144758 -0.01108908 -0.0061126202 0.0053229975
000080 46 3e 50 3c b5 cb 1a 3a 17 db 24 bc a7 8b 0f 3d
       0.01271016 0.00059049885 -0.010062001 0.035045292
000090 24 86 28 3c d2 ed fd 3b 38 75 0e 3d c4 79 41 3d
       0.010285888 0.0077492977 0.034779757 0.047235265
0000a0 33 08 b8 3c 85 ca 7c 3c fa 68 25 3c 7b 3a 99 3b
       0.022464847 0.015429144 0.010095829 0.004676161
0000b0 6c cb e6 bc 29 a7 3d 3c 6d 22 c9 bc df ee 3e 3c
       -0.028173171 0.011575499 -0.024552548 0.011653631
0000c0 ee d0 c7 bb 5e ef a3 3c 13 0c 04 bd 28 a4 e7 3c
       -0.0060979044 0.0200116 -0.032238077 0.028276518
0000d0 4a d1 cd bd 49 56 a3 3b 61 0d 48 bc 16 2a b7 bc
       -0.10049684 0.004984651 -0.012210221 -0.022358935
0000e0 85 e3 a9 bc d1 c0 f3 3b 22 10 ab 3d 0c 72 33 bc
       -0.020738373 0.007438757 0.083526865 -0.010952484
0000f0 89 d3 19 3d 30 78 23 3c 84 9d eb ba 74 27 42 bc
       0.03755525 0.009977385 -0.001797602 -0.011850227
000100 a4 6a 63 3b 52 2c ad bc b8 0e 1a bb c0 ac 7b bc
       0.0034701014 -0.021139298 -0.0023507308 -0.015361011
000110 d2 57 d2 3c aa 1a 4c 3b 6b 19 41 3c 28 a9 8d bc
       0.025676642 0.0031143823 0.011785845 -0.017292574
000120 95 45 c6 3b 1c 92 bb bc 47 4a 80 3c 36 c4 45 3c
       0.0060507753 -0.022896819 0.015660418 0.012070706
000130 d6 13 98 bc c5 90 2d 3c a4 1d fd bc ba 78 b4 bc
       -0.018564146 0.010593598 -0.030897923 -0.022030223
000140 53 fd b1 3c 33 8e c9 3c 1f 1f 85 bc f0 6f a1 bc
       0.02172724 0.024603939 -0.016250191 -0.019706696
000150 93 87 05 bd 8b a7 22 3c e8 50 39 bd 36 26 07 3d
       -0.032599997 0.009927641 -0.045243174 0.032995425
000160 8d 64 f8 3b 29 28 cc bc 1c c0 3f 3d 43 da 5f 3c
       0.007580346 -0.024921494 0.04681407 0.0136628775
000170 ff 7c 8c b9 50 90 4a 3a 4e 29 ce bb a4 30 d6 bc
       -0.0002679601 0.0007727193 -0.006291545 -0.02614624
000180 9a c1 b1 bc c1 ee f1 bc ad 12 24 bd 22 62 1e 3d
       -0.021698762 -0.029532792 -0.040056873 0.038667805
000190 be f3 61 bc 05 06 af 3d 1c e6 e9 3c 7a 6d 11 3c
       -0.013791023 0.0854607 0.028552108 0.008876199
0001a0 ea 1b 49 3d
       0.049098887

weight f4 [5, 4]
000000 a1 16 3d 3c 08 a3 91 bb 55 29 cf 3b ef 1f 72 bc
       0.01154104 -0.0044444837 0.006322066 -0.014778121
000010 0c 37 d2 bc f7 99 15 bd 78 61 ec 3a 34 af 93 3d
       -0.025661014 -0.036523785 0.0018034419 0.07211152
000020 12 13 ca 3c e6 1c 3c bc 0c 2a ac bb 5c 94 aa 3c
       0.024667297 -0.011481499 -0.005254036 0.020822696
000030 fc eb fb 3a 11 cd c8 3b db c0 1d 3d a6 f5 e5 bc
       0.0019220109 0.0061279614 0.038514 -0.028071236
000040 02 26 59 bc c7 fe 38 3c 24 3e 23 bc c3 96 57 bc
       -0.013253691 0.011291212 -0.009963546 -0.013158503

weight f4 [5, 4]
000000 8c 89 48 bc 82 26 f3 bb 9b 57 d1 b8 1a d9 95 3b
       -0.012239825 -0.007420362 -9.9822144e-05 0.0045729997
000010 7e ec 32 bc b6 21 35 3c 01 ad 1c 3a 36 3f e4 bc
       -0.010920642 0.011055401 0.00059767073 -0.027862173
000020 b2 86 a2 bb d4 93 6e bb 6a 40 5f bc 6c f5 e3 3a
       -0.0049599046 -0.003640403 -0.013626197 0.0017391867
000030 ed 61 aa bb a0 04 ea ba aa 50 58 bc a6 b3 0e 3d
       -0.005199662 -0.0017854162 -0.013202826 0.034839295
000040 18 c8 bf bc c7 a1 e8 bc 6c 84 4a bd d5 0e 6f 3c
       -0.023410842 -0.028397454 -0.049442694 0.014590939

weight f4 [5, 4]
000000 3d 8f 10 bd 9e 59 34 3d b4 5b 92 bc e1 e3 a4 3c
       -0.035292853 0.044030778 -0.017865993 0.020128192
000010 59 6b 3b 3b c1 34 0c 3c de 20 d1 bc 45 1d 0b 3c
       0.002859792 0.008557499 -0.025528368 0.008490865
000020 87 3b 1e bc 71 23 3c bd cd ec cf bb 31 2d 16 3c
       -0.009657747 -0.045932237 -0.0063453675 0.009166048
000030 95 a5 fb bc 89 76 06 3d 37 24 00 3d 76 3a 85 bb
       -0.030718604 0.032827888 0.031284537 -0.004065807
000040 f1 27 f3 3b 6c d5 1a bd af 92 2e bc b3 ce b2 3c
       0.007420533 -0.03780119 -0.010655089 0.021827077

weight f4 [7, 5]
000000 68 38 32 3c a8 9a 3a bb e5 9f 8b 3b 72 76 05 bc
       0.010877706 -0.002847353 0.0042610043 -0.008145915
000010 be b4 66 bc d6 93 d8 bb 6d a8 8f bb b1 dd d3 bc
       -0.014081178 -0.0066094203 -0.0043840916 -0.025862547
000020 b1 75 82 bc 8c 41 c9 bb 79 b9 4d bd 89 98 b1 3c
       -0.01592526 -0.006141847 -0.05022571 0.02167918
000030 1c dd 8e 3c 95 83 b0 bc 28 ec cd 3b d4 a0 77 3b
       0.017439418 -0.021547118 0.0062842555 0.003778507
000040 08 4b 93 3a d2 64 70 bb 28 4e 7d bb 2e 8d 3c bb
       0.0011237571 -0.0036681187 -0.003865132 -0.0028770673
000050 ed 14 b8 bc ad b5 59 3c d6 d8 0b 3c 00 a7 3a 3b
       -0.022470916 0.013287944 0.008535584 0.0028480887
000060 4d 53 a5 bc 1c bf 05 3d b8 c6 39 bc e3 ee 28 bd
       -0.020181322 0.03265296 -0.011338882 -0.041243445
000070 1e ad d8 ba c4 8b 3d 3c e8 c6 54 bd 41 24 3f 3d
       -0.0016531085 0.011568967 -0.051947504 0.046665434
000080 fa 38 69 3d c5 eb 4b bd fb 6e 2a bd
       0.056939103 -0.049785394 -0.041609745

weight f4 [5, 4]
000000 f1 9a 7d bc c2 78 15 3b c9 b0 a4 3a a9 d8 2d 3c
       -0.015478835 0.0022807573 0.0012564893 0.010610738
000010 c7 26 72 bd 94 89 a7 3a 99 b9 03 bd 5a b6 23 bd
       -0.059119012 0.001278209 -0.03215942 -0.039968826
000020 36 a0 7e 3c 5e 3a 18 3b a3 0b 62 bc bd 60 cc 3c
       0.015541127 0.002322815 -0.01379672 0.024948472
000030 62 97 76 3c 9f 55 c8 bb 62 9b a7 bb 3c 9d ae 3c
       0.015050741 -0.0061137225 -0.0051149586 0.02131521
000040 1b 0a 16 bc b6 bd 27 bc 02 47 97 3b 1c 01 e9 3a
       -0.009157683 -0.010238102 0.004616619 0.001777682

weight f4 [5, 4]
000000 44 d0 4e 3b f7 a6 a2 39 1f cd 26 bb 84 a7 83 bc
       0.0031557241 0.00031023446 -0.0025451852 -0.016071089
000010 ba ff 73 3d de b0 00 bd 58 28 65 bb 80 7e e1 3c
       0.05957005 -0.031418674 -0.0034966674 0.02752614
000020 e8 6d 8e 3c 55 7f df bc d6 06 9b bd 2e 7e 32 bd
       0.017386392 -0.027282396 -0.07569663 -0.043577366
000030 59 92 12 bd 00 2b 9d bc cd 9e f7 bc 74 0a b0 3b
       -0.0357841 -0.019185543 -0.03022709 0.00537234
000040 b7 1d 57 3b f1 9c 52 3c ee 9f 31 bc dc 86 ce bc
       0.0032824108 0.012854801 -0.010841353 -0.02521079

weight f4 [5, 4]
000000 07 84 cd 3b 8e 68 a3 b9 39 9a cf 3b 6e b7 38 39
       0.0062718424 -0.00031167682 0.0063355234 0.0001761594
000010 38 ad 89 3c 74 08 33 bb a7 2a c5 3b 34 fb 3e 3c
       0.01680623 -0.002731827 0.0060170474 0.011656571
000020 2a ea 4d bd a8 9c 6f bc 65 ba bd bc 98 86 4a 3c
       -0.050272144 -0.014624752 -0.023160169 0.012361191
000030 95 70 4c bc 3b 4c 22 3d c1 ce 86 bc 1a 04 64 3a
       -0.0124780135 0.03962348 -0.01645601 0.0008698121
000040 2d d7 1a 3d d4 43 1f bc 4a b5 e0 3b 52 d7 08 bd
       0.037802864 -0.009720761 0.006857549 -0.03340847

weight f4 [7, 5]
000000 87 c4 e5 3b fd 98 52 3c f8 7b 29 bc 4e b4 71 ba
       0.0070119533 0.012853858 -0.010344498 -0.0009220288
000010 ea ba cf bb 26 c5 1b 3c ee f7 33 bc 23 11 86 3c
       -0.0063394206 0.009507453 -0.010984404 0.016365593
000020 2a cf eb 3c 6b 18 f9 ba cd 90 c0 3c c2 32 0d 3d
       0.028785307 -0.001900447 0.023506546 0.034472235
000030 12 64 65 bc 30 71 b3 3b 48 1a 16 3d 4d e7 0b bc
       -0.014000909 0.0054761395 0.036646158 -0.008539033
000040 f6 50 45 bc 03 b2 8b bb 96 99 f5 bb 00 3e f4 bb
       -0.012043228 -0.004263164 -0.0074951155 -0.00745368
000050 26 00 20 bc 8b 94 72 3b 57 cc 8e bd 0d 68 8e 3c
       -0.00976566 0.0037014808 -0.069725685 0.0173836
000060 d4 d6 24 bb 54 8d 70 bb 24 90 81 bc e8 33 88 3b
       -0.0025152462 -0.0036705332 -0.015815802 0.0041565783
000070 97 c5 c0 bc fe f5 e5 bc 24 79 09 bd fd 25 12 bc
       -0.023531718 -0.0280714 -0.033562794 -0.00892019
000080 cf 08 bc 3b 36 60 0f 3b b0 35 7c 39
       0.0057383548 0.0021877415 0.00024052593

weight f4 [7, 5]
000000 7b ce 1e bc 6c d3 27 bc e1 cb d1 3b 97 1b 92 bc
       -0.0096927835 -0.010243278 0.006402478 -0.017835421
000010 b9 6c 91 bc d6 3d 39 3c eb d0 d7 bc 55 19 14 bd
       -0.017752038 0.011306247 -0.026344737 -0.03615697
000020 a7 b1 04 bd 34 cd 45 bc 51 23 46 3d 42 65 ba 3c
       -0.032395985 -0.01207285 0.048373524 0.022753362
000030 5d 8a d8 bc 1f f8 fd b9 da c3 1d bd 42 d5 f9 3c
       -0.026433164 -0.00048440785 -0.038516857 0.030497197
000040 8f ff 5a 3b c1 9c 3e 3d a1 1d 7a 3c 61 28 ec bb
       0.0033416485 0.04653621 0.015265853 -0.007206962
000050 6d 0a b8 3c 75 07 97 3c 02 ad 27 bd 23 dd d1 bb
       0.022465909 0.018436173 -0.040936477 -0.0064045354
000060 26 bd fe bc 8a 44 b3 3b a2 20 a0 3c b4 9f 02 bd
       -0.031096052 0.005470817 0.01954681 -0.031890586
000070 b4 3b d2 bc 21 21 54 3c c6 a1 bd 3b bd 50 59 ba
       -0.025663234 0.012947352 0.005787107 -0.0008289924
000080 f0 50 08 3d 80 60 81 bc 8b b5 60 bb
       0.033280313 -0.015793085 -0.0034287896

weight f4 [6, 4]
000000 74 0e 17 bc 35 03 2d 3d a2 b4 86 bb ec 7c 41 3c
       -0.0092197545 0.042239387 -0.0041108886 0.011809569
000010 d9 ba 2f bc d2 19 0d 3c b8 33 8c 3c 1b 24 ea 3c
       -0.0107257 0.008612113 0.017114505 0.02858167
000020 f7 f2 0a 3d 65 d3 d3 bc ad 05 66 3d d6 bb 37 3c
       0.033923116 -0.025857637 0.056157757 0.011214217
000030 e1 0c 47 bb f4 af 74 3c e7 ed 6b 3c d2 e3 05 3d
       -0.0030372667 0.014934529 0.014399982 0.03268797
000040 ac 11 27 bc 31 1e e8 3b dd 34 90 3c 4a 3b 7d 3c
       -0.010197084 0.007083677 0.017603332 0.01545603
000050 bf cc cc 3c b1 08 b6 bb f6 96 34 3c 1a 54 18 3d
       0.024999974 -0.0055552353 0.01102232 0.03718958

weight f4 [5, 4]
000000 e0 b7 aa 39 04 6f ff bb 73 4e cd 3b f5 72 e6 3b
       0.00032561924 -0.0077952165 0.0062654554 0.007032747
000010 c5 85 18 3c 4b 1f e5 bc fa 38 49 3c d2 ac f9 bc
       0.009309237 -0.027969023 0.012281651 -0.030477915
000020 9a 4d 97 bc f9 b2 ef 3c 21 d0 d5 bc 61 94 5f bd
       -0.01846962 0.029260146 -0.02610022 -0.054584865
000030 e6 bb 3c 3d d8 b4 fa 3b 22 19 8d bc 0e e1 8e bb
       0.04607763 0.007650953 -0.017223898 -0.0043603247
000040 5b ad 70 3c 25 a1 04 bc 30 8e d5 3b a2 ce 10 3d
       0.014689769 -0.0080950605 0.006517194 0.03535331

weight f4 [5, 4]
000000 49 67 27 bc f8 82 0c bc 9c 64 f5 3b da 9f cd ba
       -0.010217496 -0.008576147 0.0074888 -0.0015687898
000010 76 ae 79 3c b4 95 c5 bc 4c 45 10 bc 36 9b 2a 3d
       0.015239349 -0.024119236 -0.008805584 0.041651927
000020 16 b9 1f 39 71 91 57 3c 63 26 c9 3b 9b e0 89 bb
       0.00015232372 0.0131572345 0.0061386093 -0.0042076833
000030 a0 aa 12 bc a7 f7 09 3d 94 1c 85 bc a7 f0 5f bc
       -0.008951813 0.033683445 -0.016248979 -0.013668216
000040 2c 9a a0 bc 94 6a 3a 3d 94 a7 d0 bc ba b4 24 bd
       -0.019604765 0.045511797 -0.025470532 -0.040211417

weight f4 [5, 4]
000000 63 cf 1f bc 5b 74 66 ba 8a 0c 2b 3c 68 50 5b bc
       -0.009754035 -0.0008791142 0.010440001 -0.01338587
000010 42 af 05 bd 48 2d 42 3d 50 de 70 3d e7 a3 b3 3a
       -0.032637842 0.047406465 0.058805764 0.0013705463
000020 2c 52 42 bc 21 85 c6 3c 75 68 86 bc 3f 63 00 3c
       -0.011860412 0.024233403 -0.01640723 0.007836162
000030 02 6a 47 bb 3e a4 7d bc 00 ca 02 bd f2 8e e1 3c
       -0.0030428176 -0.015481053 -0.031930923 0.027533982
000040 ee b0 b1 bb 6c 87 23 3b e9 37 b2 bc 20 3a c6 bc
       -0.005422703 0.0024952544 -0.021755176 -0.024197638

weight f4 [7, 5]
000000 f1 e5 fb 3c 61 9d 05 bd 99 b3 f7 3c c0 ca 8a 3d
       0.030749293 -0.03262079 0.030237006 0.06776953
000010 b2 8c 75 3d 37 69 74 3c 08 55 f6 bc 61 d6 07 bd
       0.05994863 0.014917663 -0.030069843 -0.033163432
000020 8e 56 d2 3c b2 a1 09 3d a1 a0 6b 3d f8 95 21 3b
       0.025676038 0.03360147 0.057526235 0.0024656039
000030 b2 93 49 bd ef 25 a1 3c 58 42 b1 3d cc 04 bc 3c
       -0.04921312 0.019671408 0.08655232 0.022951506
000040 24 78 80 bd e0 11 25 bd 87 de 81 3d 2f 09 b7 3d
       -0.06272915 -0.04030025 0.06341272 0.089372985
000050 63 8c 15 3d a0 29 a4 bc 7c a6 ed 3b 5f d4 84 3d
       0.036510836 -0.02003938 0.0072525125 0.06485819
000060 d9 fd de 3c 0a c8 1f 3d 97 88 3c bd 02 77 ab bc
       0.027220653 0.03900913 -0.0460287 -0.02093077
000070 c9 43 5e bc 7c 46 73 3d 41 c1 54 bd 2d d8 2a 3d
       -0.013565966 0.05939339 -0.051942114 0.041710068
000080 fe 03 57 3d 8d 3c 6b bd aa 59 02 bd
       0.05249404 -0.057430793 -0.03182379

weight f4 [7, 5]
000000 4e 4d a1 bb f6 67 81 bc 8f 3c 80 ba d1 dd 28 bb
       -0.0049225455 -0.015796643 -0.0009783673 -0.0025766979
000010 a2 e0 2d ba 6a cf de 3c 94 f2 67 bc 35 6f c2 bc
       -0.0006632899 0.027198512 -0.014156956 -0.023734668
000020 e4 f0 8b 3c 30 5d 77 3d fb 1c 0c bd fd 00 b6 3b
       0.017082639 0.060391605 -0.034207325 0.005554317
000030 09 39 f2 3b 8a 64 6c 3c 7b 72 ac bc fb 24 9c 3c
       0.007392053 0.014428267 -0.021050682 0.019060602
000040 d1 c3 82 3d 5e 7c 85 3c 26 96 67 bb f0 88 9a b8
       0.06385005 0.016294654 -0.0035337298 -7.368799e-05
000050 b6 93 78 3c 59 8a 78 bc ec af e7 bc 7d ae e5 3c
       0.015171936 -0.015169703 -0.028282128 0.028037304
000060 3b da 41 3d 31 a1 71 ba 7a 16 b5 bc c6 73 00 bd
       0.04732726 -0.000921744 -0.022105444 -0.03136041
000070 3b 4a 30 bd bf 14 98 3b 3b a6 09 3d c2 70 cf 3b
       -0.04303954 0.004641145 0.033605795 0.0063305805
000080 b2 d0 1a 3c 36 39 7b 3a 05 72 35 3c
       0.009449171 0.0009583415 0.011074548

weight f4 [4, 3]
000000 89 83 7a bc ce 94 a3 3b b8 b6 90 bc 30 ef 07 bd
       -0.0152901495 0.004992104 -0.017665252 -0.03318709
000010 69 0e b6 bc 91 3f ec bb ac eb 02 3d bc 75 65 3d
       -0.022223668 -0.007209726 0.031963035 0.056020483
000020 9f 06 c8 bb 22 d0 a9 3c c3 ab 10 3d d6 8e 1b 3c
       -0.006104305 0.020729128 0.035320055 0.009494504

weight f4 [6, 4]
000000 18 92 15 3c e9 d1 1f 3b f2 65 59 bb 81 51 20 3c
       0.00912907 0.002438659 -0.0033172336 0.009785057
000010 87 e7 db 3b a1 66 16 bd 82 19 1e 3d 8d b1 1f 3d
       0.00671095 -0.03671897 0.038598545 0.038987685
000020 4b 25 54 3d d8 f5 ab bd 3f 94 aa 3d 5c 0a 1b bc
       0.051793378 -0.083965 0.08329057 -0.009462919
000030 89 20 39 3c 4e 4b 42 3d 8f ec 21 bd 6f ef 04 3d
       0.011299261 0.047435097 -0.03953224 0.032454904
000040 2e 12 17 bd 02 05 80 3b ee 31 a0 3b 7a d5 bb 3b
       -0.036882572 0.003906847 0.0048887646 0.0057322355
000050 74 d5 96 3b 56 92 24 3c d6 2d 61 3b 9d 9b 7c bc
       0.0046030823 0.010044655 0.0034359596 -0.0154179605

weight f4 [6, 4]
000000 e1 19 18 3c 48 50 3b bc 49 a3 89 bb b5 a0 8b bc
       0.009283514 -0.011432715 -0.0042003733 -0.017044405
000010 25 ba 17 bd e1 de 0e 3b 28 e2 1b 3d 1b 47 fe 3c
       -0.037042756 0.0021800327 0.038057476 0.031039765
000020 01 5b 42 3a 4d f7 c9 3d bd 15 ce bc 72 56 9b 3c
       0.00074140733 0.09861622 -0.02515685 0.018962119
000030 3d dd 53 bb 26 6b 9a 3d fe 27 93 3b 95 64 60 3b
       -0.0032327913 0.07539968 0.0044908514 0.003423964
000040 73 86 f9 3b 6f a3 91 bc f0 81 d1 39 f5 d5 43 bc
       0.0076149045 -0.017778127 0.00039960397 -0.011952867
000050 c4 5e 86 3a 70 7b 75 38 04 db 08 3d 17 8e bd 3b
       0.0010251631 5.8527512e-05 0.033411995 0.0057847607

weight f4 [4, 3]
000000 a5 2d 2b bc 0d d9 92 3c f7 44 6c bc 9f 41 e2 bc
       -0.010447894 0.017925764 -0.014420739 -0.027619181
000010 6c 59 f8 3c 05 c3 72 3c 5e 68 54 bb 5e 98 47 3d
       0.030316077 0.014817004 -0.003241084 0.048729293
000020 b7 3e 2f bd 3d c9 1c bb c6 46 93 bc 54 c5 6e 3b
       -0.04278442 -0.0023923658 -0.017978083 0.0036433535

weight f4 [10, 6]
000000 3a fc 4a bb 5a 3a 78 bb c1 8a a0 bb 97 9b 8d bc
       -0.0030973093 -0.0037876577 -0.0048993533 -0.017286105
000010 65 0f 83 3b b9 85 06 bc ec 3e 9a bb 4f 8a 0a bc
       0.003999638 -0.008210593 -0.004707208 -0.008455827
000020 ca 52 b8 3b f5 74 c0 bc 13 3c 30 bc 64 e4 88 bc
       0.0056251036 -0.02349327 -0.01075651 -0.016710468
000030 54 c0 b9 bc a0 be 90 3b 88 04 46 3c 2f 93 32 3d
       -0.022674717 0.0044172555 0.012086041 0.043597396
000040 64 05 ca bc fb 20 16 3c ac 0d c6 bc 32 81 b4 bc
       -0.024660774 0.009163137 -0.024176441 -0.022034261
000050 13 c8 5c 3c 29 68 d4 3b 6b f7 85 3c 34 93 2c bc
       0.013475436 0.0064821434 0.01635333 -0.010533143
000060 18 dd 90 3d 45 66 29 3d 3a a3 d1 3b db 9b 14 3d
       0.0707342 0.041357297 0.006397632 0.036281448
000070 f6 b5 b7 bc ae 15 8f 3c 9a 54 a1 bc 3d b9 09 3c
       -0.022425633 0.017466392 -0.019693661 0.008405981
000080 d6 3d 39 bc 32 f0 b1 3b df 94 09 3c e0 43 b5 3c
       -0.011306247 0.005430245 0.00839731 0.022127092
000090 b0 4a f8 bc 6e 60 97 3b f7 e0 aa bc 4a 9d 03 3d
       -0.030309051 0.0046196496 -0.020859225 0.032132424
0000a0 4e 68 ab bc ff e3 00 3c ac 70 a9 bc 9d ad 39 bd
       -0.02092376 0.0078668585 -0.020683609 -0.045331586
0000b0 96 0c 14 bd 00 a8 ca bc 68 f5 29 3d e5 38 87 bc
       -0.036144815 -0.024738312 0.041493803 -0.016506622
0000c0 74 75 35 3b f1 d9 5b 3c 4e a1 8f b9 68 16 06 bd
       0.0027688416 0.0134186605 -0.00027395267 -0.032736212
0000d0 d5 65 28 bc 96 ab 9e bc d4 a6 14 3d 36 16 43 3d
       -0.010278185 -0.019368928 0.036291912 0.047628604
0000e0 2c 82 e8 bb 22 36 44 3d 9c 5b 43 bd 9d 6c a3 3c
       -0.007095596 0.047903188 -0.047694787 0.019949252

weight f4 [7, 5]
000000 25 f8 44 ba d2 e5 20 3c c5 19 70 bc 52 0d 4e ba
       -0.0007513783 0.009820418 -0.014654581 -0.0007860261
000010 a9 9c b4 b9 8d 84 37 3d 52 84 0c bc 33 a8 cf 3c
       -0.00034448996 0.044804145 -0.0085764695 0.025348758
000020 51 59 62 3c 49 fe 7c 3d 0d 65 bc 3c aa 51 65 3b
       0.01381524 0.061765943 0.022997404 0.0034991303
000030 81 d5 d3 bc 06 ff 2c bc a5 9d e1 ba 2a 0e 83 bb
       -0.025858643 -0.010558849 -0.001721312 -0.003999491
000040 72 98 8b 3c 9f 8e f4 bc c5 a6 d6 bc 69 5a c9 bc
       0.017040465 -0.029853163 -0.026202569 -0.024579244
000050 34 40 19 3c b2 86 08 3d 50 67 83 3b 5e 9c 6e 3c
       0.009353686 0.03333158 0.0040101185 0.014563648
000060 06 81 65 ba 67 c0 8b bb a9 46 ac bc 5d c5 8c 3c
       -0.0008754883 -0.0042648795 -0.021029787 0.017183954
000070 6e fc 8f bc 10 54 aa ba e9 63 d7 bc f8 29 5e bc
       -0.017576423 -0.0012995023 -0.026292758 -0.013559811
000080 a6 2c b1 bc 90 a6 77 3c 18 88 32 bd
       -0.021627735 0.015115395 -0.04358682

weight f4 [50]
000000 2d 3c 83 3f 4c 01 84 3f a1 ee 7a 3f f4 46 81 3f
       1.0252739 1.0312896 0.9802037 1.0099778
000010 59 53 80 3f 61 19 76 3f a2 e4 7d 3f 16 b1 85 3f
       1.0025436 0.96132475 0.9917699 1.0444667
000020 e5 a9 80 3f b0 59 81 3f e6 55 7d 3f 13 2b 7b 3f
       1.0051848 1.0105495 0.98959196 0.981126
000030 95 32 81 3f e3 b3 7a 3f ca c8 7d 3f 34 78 7f 3f
       1.0093561 0.97930735 0.99134505 0.9979279
000040 7a 31 7a 3f 71 b0 7e 3f e7 e1 7e 3f 80 43 7c 3f
       0.97731745 0.9948798 0.9956345 0.98540497
000050 5f 5c 7b 3f 2c ae 7f 3f ea d9 80 3f a6 3f 7d 3f
       0.9818782 0.9987514 1.0066502 0.98925245
000060 14 7b 80 3f 79 e5 85 3f 1c ce 77 3f bd 37 81 3f
       1.003756 1.0460654 0.9679887 1.0095135
000070 0d 92 80 3f d0 38 81 3f 77 53 73 3f fd 86 80 3f
       1.0044571 1.0095463 0.9504923 1.0041195
000080 a8 2e 84 3f 61 4e 80 3f b3 ad 81 3f 75 f1 79 3f
       1.0326738 1.0023919 1.0131134 0.9763406
000090 bf ad 76 3f d4 48 85 3f 5f e8 88 3f cc a1 81 3f
       0.96358865 1.041285 1.0695914 1.0127501
0000a0 83 30 7d 3f 8c f9 7a 3f 5d e8 7f 3f 9f 0f 81 3f
       0.9890215 0.9803703 0.99963933 1.0082892
0000b0 d1 78 80 3f 89 c1 7c 3f 15 51 7d 3f a0 fa 7d 3f
       1.003687 0.9873281 0.98951846 0.9921055
0000c0 ff de 83 3f 1a 24 81 3f
       1.0302428 1.0089142

bias f4 [50]
000000 2c f1 67 bb 16 c7 f3 bc 38 bd 92 3c f8 6a 31 3b
       -0.0035391552 -0.029758018 0.017912492 0.0027071815
000010 e4 58 1d 3c 97 31 27 bc fc c2 e2 bb 8f f6 2b 3c
       0.009603713 -0.010204694 -0.0069202166 0.010495796
000020 ff fa 4f bc 76 c0 46 bb de 2b 87 3b a8 96 5d bc
       -0.0126941195 -0.0030327118 0.0041251024 -0.013524689
000030 10 c0 e0 bc b8 80 9e ba 5a c4 aa bc 37 dc 8a bc
       -0.027435333 -0.0012092805 -0.02084558 -0.01695071
000040 d6 d5 67 3c b1 88 84 bb e0 73 08 bc 59 98 f2 bc
       0.014150104 -0.004044615 -0.008328408 -0.02961366
000050 24 da e7 3b 8c 33 88 3b cb 9c 01 3d a8 f7 a9 3c
       0.007075565 0.0041565355 0.03164367 0.020747975
000060 71 b3 0a 3d bb 7e 2c bb f4 9a 57 bd 3e 81 8c bc
       0.033862535 -0.0026320654 -0.05263801 -0.017151471
000070 75 7d b1 bc 5c d4 2b bc 10 d5 0f 3c 77 72 a1 3b
       -0.021666268 -0.010487642 0.008778825 0.0049269754
000080 60 a4 8d 38 9e 08 ff 3c 86 68 05 bd 87 4b a8 bb
       6.754021e-05 0.031132039 -0.032570384 -0.0051359567
000090 d5 cf 93 bb 81 4b 93 3c a7 5a 30 3d 1f de 8b bb
       -0.0045108595 0.017980339 0.043055203 -0.0042684223
0000a0 aa 94 60 bc 59 7e 0e b9 98 c1 69 bb 86 83 26 3c
       -0.013707319 -0.00013589243 -0.003566837 0.010163194
0000b0 0b da 2b 3b c4 e2 83 bd b0 d2 46 bc ba 90 10 3c
       0.0026222493 -0.064397365 -0.012135193 0.008823568
0000c0 39 8a a9 bc 90 39 10 bd
       -0.020695793 -0.035211146

running_mean f4 [50]
000000 94 b5 86 bc cd 89 af bb 07 54 73 3c fb 73 06 bc
       -0.016444005 -0.0053570033 0.014851577 -0.008206363
000010 6c 6c 0a bc 96 f5 f7 3c 56 07 25 3c f5 fd 9b bc
       -0.008448701 0.030268472 0.01007255 -0.019041995
000020 85 aa be 3c 97 70 74 bb 4f d1 ad ba f4 6a 00 3c
       0.02327467 -0.0037298554 -0.0013261231 0.007838
000030 cd b1 ad bc e4 db eb 3b e8 7c f4 3b 72 c7 7f 3c
       -0.021202946 0.007197844 0.007461179 0.015611516
000040 ea 2e 00 3c b3 6c 81 3a bf ec 76 bc 77 1a ae 3b
       0.007823685 0.0009874314 -0.015071093 0.0053132134
000050 8b 54 14 bc d3 a8 97 3c fa ae 53 39 53 d5 5d 3c
       -0.00905336 0.018513119 0.00020187712 0.01353963
000060 ac 0f 53 3c 40 6c 4f 3c ee 34 b8 3c ff 32 96 3c
       0.012882154 0.012660086 0.022486176 0.018334864
000070 22 12 8b 3c c9 6a 59 3c 58 05 12 3c 96 b8 18 3d
       0.01697642 0.0132700885 0.008912407 0.03728541
000080 fe c9 01 3b a5 5b 31 bb 5b a6 94 ba 92 e9 07 bc
       0.0019804235 -0.002706268 -0.0011341082 -0.008295434
000090 56 55 86 bb b7 40 32 3c 6e 6b 82 3b e9 06 a9 3c
       -0.0040995283 0.010879687 0.003980092 0.020633178
0000a0 77 27 d4 3c 6b 9c de 3c c5 89 52 3c 20 0d 52 3c
       0.025897725 0.027174195 0.01285023 0.012820512
0000b0 40 3d 86 3c d9 db 6e 3c 45 8d 71 3c 01 de 93 3b
       0.016386628 0.014578783 0.014743154 0.004512549
0000c0 74 09 29 3c 33 b5 5d 3c
       0.010317195 0.013531971

running_var f4 [50]
000000 55 bc 7f 3f 47 a2 7a 3f 12 2e 73 3f ca 3e 84 3f
       0.99896747 0.97903866 0.9499217 1.0331662
000010 72 9b 8f 3f 5e bf 04 40 ee bf 81 3f b8 ed 77 3f
       1.1219313 2.0741801 1.0136697 0.96847105
000020 66 d4 7a 3f 30 10 7f 3f bd d8 6a 3f 41 42 78 3f
       0.97980344 0.99634075 0.91736966 0.96976095
000030 16 f4 63 3f 5d 67 82 3f 11 37 7a 3f 71 8a 72 3f
       0.8904432 1.0187794 0.97740275 0.94742495
000040 3c ec 78 3f e9 a2 80 3f f6 94 6c 3f 19 b1 73 3f
       0.97235465 1.0049716 0.92414796 0.95192105
000050 fd ef 79 3f c2 79 8a 3f b3 42 7d 3f 0c 7c 80 3f
       0.9763182 1.0818408 0.989299 1.0037856
000060 08 b3 78 3f 98 5c 8e 3f 0b 39 7b 3f 1b 1a 82 3f
       0.9714818 1.1122007 0.98133916 1.0164217
000070 6e 7d 79 3f 22 83 7f 3f 24 e0 7f 3f 32 ce 81 3f
       0.97457016 0.9980947 0.99951386 1.0141051
000080 fe 3e 72 3f a3 7c 80 3f 62 68 74 3f 03 a8 77 3f
       0.9462737 1.0038036 0.95471776 0.9674074
000090 99 aa 66 3f 09 11 84 3f 18 78 7d 3f 91 ef 7d 3f
       0.9010406 1.0317699 0.99011374 0.99193674
0000a0 c6 07 81 3f 94 0b 81 3f a5 d1 80 3f 5e 2a 80 3f
       1.0080497 1.0081658 1.0063978 1.001293
0000b0 7b c2 81 3f 3b 50 80 3f 5f 72 80 3f b6 d8 78 3f
       1.0137476 1.0024484 1.0034903 0.97205675
0000c0 56 f4 7e 3f bf 91 80 3f
       0.9959158 1.0044478

weight f4 [200, 211]
000000 55 3f 60 bc 48 a8 33 3d c2 e0 8a bd 82 01 2a bd
       -0.0136869745 0.043861657 -0.067811504 -0.041505344
000010 db d8 5b 3d d8 d6 40 3d 34 8b 58 3b b3 23 67 bd
       0.053673606 0.04707989 0.0033041956 -0.05643053
000020 16 40 4d bd 0d f4 01 be c9 cd 09 bd d3 59 00 3d
       -0.050109945 -0.12690754 -0.033643518 0.031335663
000030 01 ad fd 3a 17 50 0c 3d 47 35 07 3d bb a5 5c 3d
       0.0019353927 0.034256067 0.033009794 0.05386899
000040 7f 55 60 bd 4e 3a be bc 68 19 c1 3c ba 27 3b 3d
       -0.054769035 -0.023221161 0.023571685 0.045692183
000050 d0 bd 29 3c 4c c9 c0 3b b6 34 b6 3d 1e a6 93 3b
       0.010360196 0.0058833715 0.088967726 0.0045058867
000060 bc 73 1b 3d 61 e9 09 3d 41 50 07 bd a1 9b 94 3c
       0.03795217 0.033669833 -0.03303552 0.018140616
000070 0f 79 54 3d 1c 3d 2e bd 33 0f 0c 3d 78 43 74 bd
       0.051873263 -0.042538747 0.034194183 -0.059634656
000080 c2 52 8f 3d 70 54 ae bd 0c f8 99 3d 6a cc 0d 3d
       0.06998207 -0.08512199 0.07518014 0.034618773
000090 6a c9 1a bc 03 1e b8 bc 23 ca d4 3b b6 cb 33 3b
       -0.009447435 -0.022475248 0.006493823 0.0027434654
0000a0 79 42 08 3b 65 38 3b 3c e8 4a 3d 39 61 e0 09 bd
       0.0020791574 0.01142702 0.0001805235 -0.03366125
0000b0 68 14 df 3a bf 92 e8 3c 49 1e cf 3c 89 52 ba 3c
       0.0017019631 0.028390286 0.025282996 0.022744434
0000c0 32 71 58 3d 43 e3 a7 bd 14 63 2a bc 39 ba 7f 3c
       0.052842326 -0.081976436 -0.010399599 0.015608364
0000d0 cb 54 b7 3d 27 a7 6d bd bc b0 3e bd 21 7a 50 bc
       0.0895172 -0.058020737 -0.046555266 -0.01272443
0000e0 05 1b 35 bd 5e 17 63 bd 27 0c 5a 3d 80 a0 4e 3c
       -0.04421522 -0.055442207 0.053234246 0.012611508
0000f0 6e 6c 83 bc 7a 58 bc 3c 54 99 3d 3b a6 df 04 bb
       -0.016042914 0.022991408 0.0028930502 -0.0020274906
000100 c0 de 26 bc a5 4d 52 3c 42 fe 53 bc aa b6 7a 3d
       -0.010184944 0.012835895 -0.012939038 0.06120936
000110 6c 48 6f bd 42 bb d4 bc a3 e3 f1 bb 21 b1 2d bd
       -0.058418676 -0.025968198 -0.0073818727 -0.04240525
000120 7a d3 36 3d 4c 59 67 3d ca d5 77 3d e6 7a 73 bd
       0.044635274 0.056481645 0.06050662 -0.059443377
000130 03 91 69 3d d7 3b 41 3d b9 0e 00 bd cf 06 73 3c
       0.05702306 0.04717621 -0.03126404 0.014833166
000140 5f 32 01 3d 25 05 8a 3d 03 e4 a2 bd e0 e6 92 3d
       0.03154218 0.067392625 -0.07953646 0.07172942
000150 13 0e 07 bd d4 73 1d 3d 93 53 b5 bc 95 43 37 bd
       -0.032972407 0.03844054 -0.022134578 -0.044742186
000160 be 2b 47 bd 85 cd 0b 3d 70 9e 77 bc 2d 30 86 3d
       -0.0486257 0.034131546 -0.015113458 0.065521576
000170 fc 4f 89 bb 62 1e c2 3c 44 9d ad bc 14 ab 5e 3c
       -0.004190443 0.023696128 -0.021193154 0.013590593
000180 72 1d 24 bd d5 6d 07 bd 40 34 8d 3d d4 28 4b bc
       -0.040067144 -0.03306373 0.068947315 -0.012399871
000190 bf 4b 21 bd 79 aa 2e bd e6 25 5d bc 3c 99 86 bd
       -0.039378878 -0.042643044 -0.013497805 -0.06572196
0001a0 42 24 91 bc b6 14 b5 3d 9a ba ab bc c8 d8 3e 3c
       -0.017717484 0.08841841 -0.020963002 0.011648364
0001b0 3a fc 54 bd 32 60 c8 bd f5 ae 74 bd de 23 67 3d
       -0.051998354 -0.09783973 -0.059737165 0.05643069
0001c0 b1 0a f4 bc 78 80 93 3c 46 51 8c ba fc b2 10 3d
       -0.029790254 0.018005595 -0.0010705374 0.035326943
0001d0 fb 84 72 bd c7 ad 88 3d bb 6d 5b bd 99 90 ab bd
       -0.05920885 0.066737704 -0.053571444 -0.08377189
0001e0 6d 07 47 3d 61 f2 ba 3c b2 8f 2e bd 66 0d 31 bd
       0.048591066 0.022820653 -0.042617507 -0.04322567
0001f0 95 b8 87 bd bc f8 46 bd 44 27 5a bc c0 8f 94 3d
       -0.06627003 -0.048577055 -0.013315026 0.07253981
000200 6e d5 07 3d 7a 11 c8 bc e1 a3 05 bd e7 66 96 3d
       0.033162527 -0.024422396 -0.03262699 0.07343846
000210 8c 2a c9 3b b4 b0 2f bc 2e 66 e6 bc 32 24 63 3d
       0.006139105 -0.010723282 -0.028124895 0.05545444
000220 94 31 15 3d cc dd 8e 3c 27 5e 82 3d 93 bc 7a 3c
       0.036424235 0.017439745 0.063656144 0.015303749
000230 ee 1b b1 3b b1 34 07 bd 33 1a a4 3d 2c 74 06 3d
       0.005404941 -0.033009235 0.080128096 0.032825634
000240 e4 90 0c 3d fc e1 6c bc 71 c6 0c bd c0 1d 27 3d
       0.034317866 -0.014458176 -0.034368936 0.040799856
000250 98 ad 3f bc de 9b 5c 3d dc 4d 91 3c 7b b9 1e 3d
       -0.011699103 0.053859584 0.017737322 0.038751107
000260 55 81 aa 3d 68 76 01 bd 0c 92 6d 3d 4c 62 f0 3c
       0.083254494 -0.03160706 0.05800061 0.029343747
000270 0b fd 72 3d 48 3b 4e 3d e9 9b 52 bd 26 a9 06 3d
       0.05932335 0.050349504 -0.05141822 0.032876156
000280 49 25 91 3d 21 a7 3e bd 66 36 84 3c c3 7b 1d bd
       0.0708719 -0.046546105 0.01613922 -0.038448106
000290 43 20 13 3d 0c e0 10 bc b1 76 89 3d 68 c9 c6 bb
       0.03591944 -0.008842479 0.06712092 -0.00606649
0002a0 ea 45 fc bd eb 34 2d 3d 01 e3 bd 3c bb e7 e0 3b
       -0.123180225 0.042286795 0.023179533 0.006863562
0002b0 e8 fc a8 3c b1 9f cf 3d 56 2e ed 3c d6 f4 2d 3c
       0.020628408 0.101378806 0.028952759 0.0106174555
0002c0 03 9b f7 3c ec 83 68 bb 19 96 88 bb 57 62 e1 bc
       0.030225283 -0.0035479022 -0.0041682837 -0.027512712
0002d0 63 fb d8 bc 6f 2c 09 3d 81 94 b8 bc 84 c7 72 bc
       -0.026487058 0.03348964 -0.02253175 -0.014818076
0002e0 c4 45 95 3d 3e b3 32 3d 97 05 93 3d d3 a0 a0 3d
       0.07288697 0.04362797 0.071788006 0.07843175
0002f0 6e 06 f1 bb f3 e6 15 3c a4 7c a1 3d eb 8d 08 bd
       -0.007355503 0.009149301 0.078851014 -0.03333847
000300 30 76 51 bd fc fa 06 3d 12 e8 18 3d 74 bd eb 3b
       -0.051138103 0.0329542 0.037330694 0.0071942154
000310 55 a8 7e 3c 54 6d 25 bd a7 ec ef bb 78 a7 a8 3d
       0.015543063 -0.040387467 -0.0073219123 0.08235067
000320 47 18 4a bd 9e dc e8 bc 75 65 10 bd dd 36 5d 3d
       -0.04933956 -0.028425511 -0.035253007 0.0540074
000330 23 2d 51 bd c6 8d b0 bc b7 14 65 3d 09 76 02 bd
       -0.051068436 -0.021551978 0.05592796 -0.03185085
000340 5f e7 81 3d 0a 2b c2 bc 89 81 b2 3c 20 56 fe 3b
       0.06342959 -0.023702163 0.021790283 0.0077617317
000350 91 f0 9f bc 19 27 65 3d f3 65 1d 3d 54 8e 4b bd
       -0.01952389 0.05594549 0.038427304 -0.04969628
000360 f1 ca 24 3d 5b 6f e7 3c 8c b9 0f 3c dd 6b 6c bd
       0.040232603 0.02825134 0.008772265 -0.057720054
000370 4d e2 f3 bb 8e ae 57 3d bb c5 b9 bd c2 67 76 bd
       -0.0074427486 0.052656703 -0.09070917 -0.060157545
000380 47 8f 46 bd 6c ea e3 3b 23 cc 10 bd 1d e8 06 bc
       -0.048476484 0.0069554355 -0.03535093 -0.008234051
000390 36 6d 77 3d 53 9c 6d bd 58 ef 8b bd 12 c1 df bc
       0.060406886 -0.05801041 -0.068327606 -0.027313743
0003a0 33 0b 2c bd 00 89 c6 bc 92 a0 aa 3c 7d c4 59 bc
       -0.042002868 -0.024235249 0.020828519 -0.013291475
0003b0 3c 3c 23 bd 3e 53 1f 3d 94 58 50 3d d8 22 23 bd
       -0.039852366 0.038897745 0.050865725 -0.03982815
0003c0 a0 99 5c 3d f2 5b a7 3b 8b b6 79 bd 10 25 13 bc
       0.053857446 0.0051073963 -0.060965102 -0.008981004
0003d0 55 a9 8d bd 58 6b 06 3d 0b 4f 13 3d ad bf f8 3c
       -0.06917063 0.032817215 0.035964053 0.030364836
0003e0 cc 86 4f bc 06 89 7b 3d b9 2e 2c 3d e9 43 51 bd
       -0.012666415 0.061409973 0.042036746 -0.051090155
0003f0 77 e7 1d bd ab c2 3e 3c 94 46 5e 3b ab 3a 0c 3c
       -0.03855082 0.011643092 0.003391658 0.008558909
